models/checkpoint_actor_multi.pth (torch_old, 169478 bytes, 6 tensors)

fc1.weight f4 [256, 33]
00000000: e5cc f0bd 709a 10be 7579 b53d 30bc 0f3e
00000010: b854 8cbc 39fa 243c 8c2a 31bd 0c63 ea3c
00000020: be17 233d e496 eebb 6939 6ebd 8adb 68bc
00000030: d014 37bc ef15 a4bb 84a0 c1bd a59c 0cbe
00000040: 13c5 bcbc 3d11 ba3c 94a7 92bc 09c0 49bd
00000050: 0fb0 7fbd e4e9 a2bd e391 15bd ae60 f93d
00000060: 8e28 8b3d f91d a5bd eabd 803d fc56 773a
00000070: 160b 0ebe 702a 013d d0e7 033d 7400 e93c
00000080: 78c9 c93d 467e 9abb e24d 99bd 36d4 973c
00000090: 3de0 a03d 8470 ad3d 211c 373d 2dd3 12bb
000000a0: 7360 0c3d fece 083e c7a0 87bd 011b 9dbd
000000b0: 3495 9dbd d9c4 323c dcf5 51bd 0c3f 403e
000000c0: c16f 5ebd 9589 11bd 821c c43c 6b94 4fbd
000000d0: 18ed 163c cd51 34bd 3940 8f3d 988e 58bd
000000e0: 2f55 11bd 229a e6bc 58d0 7b3d 8868 9e3d
000000f0: 9a5f d0bd 51bb 073e ca5b 71bd 053a e83d
00000100: 1a4e 543d db1e 6ebe 211c cdbc df05 8e3d
00000110: b445 11bd d6aa 283c d430 d9bd 749e 95bc
00000120: 9514 7b3d 63f4 20bd b469 bb3d 4a1a 083d
00000130: 7471 b33b 375c 29bc 634e 5dbd bc93 bc3d
00000140: 6f08 1b3c def1 fe3d bb4e 4e3d 29f7 7d3d
00000150: d184 7cbd 9b0d 6dbc 81cd a2bd 1906 34bd
00000160: d625 50be 4752 e3bc bc39 37bd 9766 b63c
00000170: 3624 bebd 0f98 1bbd 8823 f4bd 2841 063d
00000180: fe09 c7bc 7ca1 12bd 8774 49bf c1ee a6bd
00000190: 6a78 423d 39ad 663c 08e7 00bc d9ac 1bbd
000001a0: 3d25 39bd bbfe e5bc 7a68 0cbe 6211 0ebe
000001b0: e7f4 d53d 5edb 153c 5be9 39bd 24ac 653d
000001c0: fa4c c8bd 5d57 cabd 34bf bd3c 3b0e 3fbb
000001d0: e750 463c ab7e 74bd 6b2e 833b d141 44bc
000001e0: 9509 cbbc 1eaf 08bd d451 9c3d 71e0 81bc
000001f0: b871 9d3d 0bb5 443e b484 9ebc ad7c c03d
00000200: 8c51 63bd b175 483d 38cd 34bd 4cde 153e
00000210: 0573 533d d452 b6bd d712 7f3d 4218 8d3d
00000220: 142a ae3c ea15 463d ce08 31bb 24f4 cb3d
00000230: 3993 d03d 730a da3d 4886 503c 7fda f53c
00000240: 5cf8 4cbc e3ef b2bd 77b0 593e 6f7e c8bd
00000250: 12b8 19bd f7c7 86bd fd51 aa3c 234e cfbc
00000260: c3a5 ed3b b6b2 ad3d 9c7c 8abc e6dc 98bd
00000270: 5db8 d13c c97e 06be 6e98 933d c19f 01be
00000280: 00a2 f43d b84f 373c af8b 0d3e 28a8 743d
00000290: 8e09 4e3e 0d9d 62bd b549 ed3d 0b08 d6bc
000002a0: 8018 dc3c 1c8a 15bd b8f6 71bd 9930 473d
000002b0: 5ba6 003e db02 b5bd 7d07 e9bc a68b aabd
000002c0: d6a5 ee3d 7a6e a23c 424a 90bd 9fd3 003e
000002d0: 7395 02bd 3bec 823c a0ec 82bd e04e a33c
000002e0: 8bc2 193d 6ce0 30bd 782c 103d 37a3 b93d
000002f0: c510 bfbd c9e0 d3bc 1e45 44be 4258 75bc
00000300: 2c1b 893d e37c ad3d e88c bf3c fae4 9bbd
00000310: b44c 823c 6ff7 c7be 389c 8fbd 5442 28be
00000320: d43c 473e 4836 023d 6fbd 5a3b 7520 edbc
00000330: 7d77 0e3d 5a45 d73a 1eff c6bd 3cc5 033e
00000340: 56a0 8c3b 9911 80bb a5d9 cdba b825 19bd
00000350: b85e 113d dbbd c43b f5d8 8dbd c545 ea3c
00000360: 19e7 b9bc 32ac 0d3d 4360 293d 4a34 d13d
00000370: b056 40bd 7694 0bbd cadc f03c c82f ec3d
00000380: cb12 a73d 048a cabd b99d b13d 90ba 223d
00000390: fbc7 2c3d 3880 463c 1e07 fc3d 5284 82bc
000003a0: 7982 cabd 406c a23d d1b7 df3d e11f debb
000003b0: 73bf a0b7 b558 903a 7d4e c0bd 7a80 7bbd
000003c0: 192c a1bd eefa dc3b ca96 cabc 1ec6 223d
000003d0: 5cd4 ca3d 1e2b 0c3d 9485 a1bc df8d a0bc
000003e0: 9e9e e2bd 6a6e d0bd 610a 473d 13bb e0bb
000003f0: adbf 8abd a546 a6bd 59fe c13d 6f35 7c3c
-0.117578305 -0.14121413 0.08861057 0.14036632 -0.01713024 0.010069423 -0.043253466 0.028611682
0.039817564 -0.007281171 -0.05816022 -0.014212498 -0.011174396 -0.0050074975 -0.09454444 -0.1373163
-0.023043191 0.022713298 -0.017902173 -0.049255405 -0.062423762 -0.07954767 -0.03651608 0.12176643
0.067948446 -0.080623575 0.06286223 0.0009435264 -0.13871416 0.031534612 0.032203496 0.028442599
0.0985288 -0.00471476 -0.07485558 0.018533807 0.0785527 0.08468726 0.04470456 -0.0022403703
0.03427167 0.13360211 -0.06622463 -0.07671166 -0.07694474 0.01091119 -0.05125986 0.1877405
-0.054305796 -0.0355316 0.023939375 -0.05067865 0.009211801 -0.044023324 0.069946714 -0.052870363
-0.035481628 -0.028149668 0.06147799 0.077347815 -0.101744846 0.1325505 -0.058925427 0.11339191
0.051832296 -0.23253958 -0.025037827 0.069347136 -0.035466865 0.010294637 -0.10605016 -0.018264033
0.061298925 -0.039295565 0.09151021 0.033228196 0.005476171 -0.010336927 -0.054029834 0.092078656
0.00946246 0.12448476 0.050368052 0.06200329 -0.0616501 -0.014468576 -0.07949353 -0.043951128
-0.20326933 -0.027749194 -0.044732794 0.022265716 -0.092842504 -0.03798681 -0.119208395 0.03277698
-0.024296757 -0.035798535 -0.7869343 -0.081510074 0.047478117 0.014079385 -0.007867582 -0.038006637
-0.04520153 -0.028075567 -0.1371173 -0.13873819 0.10447102 0.0091465395 -0.04538856 0.05607237
-0.09780307 -0.098799445 0.023162462 -0.002915277 0.01210425 -0.059691112 0.004003336 -0.0119785825
-0.024784843 -0.03337013 0.07632795 -0.015854092 0.07687706 0.19209687 -0.019350387 0.0939878
-0.05549769 0.048940364 -0.044141024 0.14635581 0.051623363 -0.08902517 0.062273826 0.068893924
0.021260299 0.048360743 -0.0027013305 0.099586755 0.101843305 0.10646524 0.012727328 0.030011414
-0.012510385 -0.08737161 0.21258722 -0.0978974 -0.03752906 -0.06581109 0.020791048 -0.025305813
0.0072524264 0.08481352 -0.016905122 -0.07464008 0.025600607 -0.13134302 0.07206808 -0.12658598
0.119449615 0.01118844 0.13822816 0.05973068 0.20120832 -0.055325557 0.11586324 -0.026126882
0.026867151 -0.036508664 -0.05907318 0.04863033 0.1256346 -0.08838435 -0.028445954 -0.08327417
0.116527244 0.01982807 -0.070454136 0.12580727 -0.031880807 0.015981784 -0.06392789 0.019935071
0.037539046 -0.043182775 0.03519866 0.09064334 -0.093293704 -0.025864022 -0.19166991 -0.014974656
0.06694636 0.08471086 0.023382619 -0.07612033 0.015905716 -0.39055964 -0.07012218 -0.16431552
0.19456798 0.031790048 0.0033377071 -0.02894614 0.03478192 0.0016423867 -0.097166285 0.12868208
0.0042915745 -0.003908348 -0.0015705122 -0.037389487 0.03549072 0.006004078 -0.06926147 0.028597722
-0.022693204 0.034588046 0.041351568 0.102150515 -0.04695767 -0.03407713 0.029402155 0.11532551
0.08157881 -0.09889606 0.08672661 0.0397287 0.042182904 0.012115531 0.12306045 -0.015932236
-0.09888167 0.07930803 0.10923732 -0.0067787026 -1.9162637e-05 0.0011012765 -0.093899705 -0.06140182
-0.07869739 0.0067437803 -0.024730105 0.03973972 0.099037856 0.034220807 -0.019717015 -0.0195989
-0.1106541 -0.1017731 0.048593882 -0.0068582385 -0.067748405 -0.08118943 0.09472341 0.015393599

fc1.bias f4 [256]
00000000: 5757 f23d 8f74 933e abe6 7fbc 1372 213e
00000010: 8da6 ab3d a22d 73be 7757 83bd dbae 873c
00000020: b6ed 9e3d 76be 4d3e 2d47 bbbd a684 d0bb
00000030: d385 663e 7761 2cbd 9025 8b3d f472 b03b
00000040: 8a80 5fbc 5686 24be fb44 e73d ec28 54be
00000050: 04b5 213d a459 6b3d 2305 23bc e18a 6bbc
00000060: ae6e b9bc 981e b5bd 3662 083e 49c2 96bd
00000070: f6a7 b03d 94f1 813e 0234 223e bd28 ecbd
00000080: cc53 33be 0f3c abbd 6ad6 0c3e 2455 513d
00000090: 2c69 1a3e ea10 f13d 8d2a babc 270c 0a3e
000000a0: f6ea d8bd f0d4 0cbe 0d45 593e b50c fdbd
000000b0: 9172 f4bc 4973 07be d825 003e 112f 263e
000000c0: 90d8 203e 7223 eebd 6aa6 38bd f3f8 243e
000000d0: 1d21 47be a8a3 3fbc 3153 96bd cc91 2f3e
000000e0: f1d7 abbc 8d95 e4bb 4fd5 4d3c 4c68 17be
000000f0: 824e 2cbe 623d cf3d 0e8e 60bc ed82 67bd
00000100: 2f21 e5bd 0116 94bd 3c9d 8f3d 7b0d bc3d
00000110: d6fe 9d3d 3234 513d 1151 dd3d 3d80 053e
00000120: 973e 26bd feb9 25be c77e bebb 9519 133e
00000130: 80a2 243e c686 853d ca40 e03d 4cfd 44be
00000140: c750 163e 99c8 f33d e1c5 57bb 5075 8b3d
00000150: d77b ec3d 082d 56bd 352a 663e 9330 1e3e
00000160: 9469 613d 4ce4 c63d e9de cf3d 24c1 6c3b
00000170: a9b7 e03d cf3e 55be a80b adbd d400 073e
00000180: e246 a13e 4423 e53c e045 283e fa67 e8b9
00000190: 9c42 e23c 4296 243c 3b09 8d3d c0cf 4fbe
000001a0: 388c 81be b982 fd3d 727c 4ebd c74c 643e
000001b0: 8000 3cbe 3911 303c 3b3e 413e f5d0 1b3e
000001c0: 4781 17be 9337 1abd 70c5 933c 7412 49be
000001d0: 255c 3ebd 9a32 cfbd 79cf bebd 725f 44be
000001e0: fc68 403e a690 b43d c02c e73d 2956 293e
000001f0: e41b b9bd e600 493e 7ee7 153d dba3 933d
00000200: dc41 5dbd 6490 603e 37e8 1dbd 3654 febd
00000210: 5c5e ba3d a2d5 063e 38d8 98bc 4c36 b1bd
00000220: 7d0f ebbd ab82 2d3e da51 0abe 462a 373d
00000230: 0974 69bc b728 c9bd e3e7 d6bd a196 0cbe
00000240: 077b 213d 3e02 8bbd c5d2 06be cb36 57bd
00000250: 4172 1a3e fea3 023e 7875 57bd dba8 aebd
00000260: e897 d93c 149d ff3d 8f0d b73d d47c 33bd
00000270: 4ef9 1b3e 71ec 383d 050c 1c3d 0b7f 05be
00000280: 837e 0c3e 4864 84ba e4d0 2a3b 9406 55be
00000290: b940 8b3d 3113 b53d d50a d7bc 57e8 8fbd
000002a0: 5657 96bd 888f fa3d ef45 dcbd 7c49 8d3d
000002b0: ebd2 713e 75a6 383e 8a4a bb3d da0f 9d3d
000002c0: 7e52 873e 4ac8 0e3d 4060 063e b201 1bbc
000002d0: 4a76 21be c862 833c bc57 fcbd a3e5 883d
000002e0: f663 5dbd 64a1 44bd 8744 2e3c b996 acbd
000002f0: 0322 2b3e e8aa 573e 634c 08bd 5064 253e
00000300: 645b bf3d 0ee5 373e 7aca 41bc b44a 443d
00000310: d51f 44bd be70 31be c2da 4cbe 4457 84bd
00000320: ffd1 fa3d 4765 873d 7739 a03d fe94 3fbe
00000330: cd43 213e 9824 023e d48b 1f3e 3637 cb3d
00000340: c8fc e0bd 8a8f c63c 8b77 8ebb a316 883e
00000350: eec6 b23d 8cf3 b1bc 1ff3 3b3d 3530 353e
00000360: 7ecd a1bd 203b 033e 5941 c33d 795d 4e3e
00000370: f9c2 b53c c11e ccbd 60c3 d0bd 5580 23be
00000380: 27f5 183e 2352 10be 059a cbbd 0b37 00bd
00000390: 16f0 8abd df11 b63d 3e3f d43c 3853 4f3e
000003a0: d6e6 a7bd 7923 76be 5784 863e ed2a 003d
000003b0: f577 e53d 27ed 0d3e adcd de3b c259 b7bd
000003c0: 68de 853d 1efc bbbd 393b 3a3e 2539 ab3d
000003d0: a76b 9f3d e71b 6d3e 6c75 ec3d 3db1 913d
000003e0: 8597 d73d d591 1ebe d7cc ef3d 7aa1 2ebd
000003f0: bccf fc3d ab5c aebd 0cba 9f3d 1991 aa3d
0.11833065 0.28799865 -0.01561896 0.15766172 0.083813764 -0.23747876 -0.06413167 0.01656287
0.077601835 0.20092186 -0.09144435 -0.006363469 0.22511987 -0.042085137 0.06794274 0.005384797
-0.013641486 -0.1606687 0.11292454 -0.20718735 0.03947927 0.057458535 -0.009949955 -0.014376373
-0.022635784 -0.08843726 0.13318714 -0.07361276 0.08625786 0.25379622 0.15840152 -0.11531208
-0.17512435 -0.08361065 0.13753667 0.051106587 0.15079182 0.11770804 -0.022725368 0.13481198
-0.1059169 -0.13753104 0.21217747 -0.12355939 -0.029839786 -0.13227572 0.12514436 0.16228892
0.15707612 -0.116278544 -0.04508058 0.16110592 -0.19446225 -0.0116967335 -0.07340086 0.17145461
-0.020976992 -0.0069758357 0.012563064 -0.1478588 -0.16826823 0.1011913 -0.0137057435 -0.056521345
-0.1118797 -0.072307594 0.07012412 0.09182259 0.07714622 0.051075168 0.10806478 0.130372
-0.040587034 -0.16184232 -0.005813453 0.14365228 0.16077614 0.065198466 0.109498575 -0.1923725
0.14679252 0.11903495 -0.0032924342 0.06809485 0.11547058 -0.05228904 0.22477038 0.15448217
0.055032328 0.09711513 0.101499386 0.0036125863 0.109725304 -0.20824741 -0.08449489 0.1318391
0.31499392 0.027970918 0.16432905 -0.00044327957 0.027619652 0.01004559 0.06886526 -0.20294094
-0.2530229 0.12378449 -0.05041165 0.22294913 -0.18359566 0.010746294 0.18871395 0.1521643
-0.14795409 -0.037650656 0.018038481 -0.19635946 -0.046474595 -0.10117073 -0.09316916 -0.19177034
0.18790048 0.08816652 0.11287832 0.16536774 -0.09038523 0.19629249 0.03659772 0.07208987
-0.054017887 0.2193008 -0.038551535 -0.12418406 0.09100029 0.13167432 -0.018657789 -0.086529344
-0.114775635 0.16944377 -0.13507786 0.04471805 -0.014248856 -0.09822219 -0.10493448 -0.13729335
0.03942397 -0.06787537 -0.1316634 -0.05254249 0.15082647 0.1275787 -0.05260226 -0.085283004
0.026561692 0.12481132 0.08938133 -0.043820217 0.15231821 0.045147363 0.0380974 -0.13036744
0.13720135 -0.0010100687 0.002606445 -0.2080329 0.06799454 0.08841551 -0.026250282 -0.07026737
-0.07340877 0.12234408 -0.10755526 0.06898782 0.23615615 0.18032248 0.091450766 0.07669039
0.26430124 0.03485898 0.13122654 -0.009460853 -0.1576778 0.016038314 -0.123214215 0.06684425
-0.05405041 -0.048005477 0.010636455 -0.084271856 0.16712193 0.2106129 -0.033275973 0.16151547
0.09343603 0.17958471 -0.011828059 0.047922805 -0.04788192 -0.17328164 -0.20005324 -0.06461957
0.12247085 0.06611114 0.078234605 -0.1870918 0.1574852 0.12709272 0.15580684 0.0992264
-0.10985714 0.024238367 -0.0043477467 0.2657977 0.08729349 -0.021722578 0.045886155 0.17694171
-0.07900523 0.12815523 0.095339485 0.20152844 0.022187697 -0.09966803 -0.10193515 -0.15966924
0.14937268 -0.14093833 -0.09941486 -0.031302493 -0.06784074 0.088901274 0.025909062 0.20246589
-0.08198325 -0.24036969 0.26272842 0.031290937 0.112045206 0.13859998 0.006799421 -0.08952667
0.06536561 -0.09178947 0.18186654 0.08360509 0.07784205 0.23155175 0.11545834 0.07113884
0.10526947 -0.15485318 0.11708992 -0.042634465 0.1234431 -0.08513769 0.077991575 0.083284564

fc2.weight f4 [128, 256]
00000000: a0cc 17bd 864d 903d d67d 1cbd df12 be3b
00000010: 719d a6bd 838d 39be 6f58 ee3d e4b8 2e3e
00000020: 01ec 57bd 6b43 333e bf63 323e 5ce0 68bc
00000030: 3c79 a2bd 2abb 61bd 29ea e73d 012f 0bbd
00000040: 8dfc db3d 0316 183d 46c1 a1bc 7eea 2f3d
00000050: af54 0cbc eba4 43bc cc06 f93d d718 183d
00000060: 2023 303c 4d31 bbbd a0d6 8c3d 7037 2cbd
00000070: f32d 8a3c 7673 6e3c 97ea b53d cf44 5e3d
00000080: eab6 23bd 88ab a7bd ac93 0a3e c466 1f3e
00000090: fc64 683e b86b 8ebb e7fd 1dbe 60a7 b93b
000000a0: 12db 00be c4cf 013c ad33 1d3d eaf8 0c3e
000000b0: a450 fbbc 84c8 c53d c552 7bbd 1031 b83c
000000c0: e5e2 03be 3966 01bc bf58 d53d 8c01 343d
000000d0: 09bf 183e 8ef2 993d 6144 97bd 9803 003e
000000e0: 7b05 e33c 332c 47bd f20e aa3d 3080 a23e
000000f0: 1fd5 9d3d 4fc5 a3bc c628 eb3d 4431 453d
00000100: 09a7 1f3d 8e70 e8bc f05b 233e 539f 20bc
00000110: 9d0f 8c3d 69a1 073e b776 9c3d 2f7e debc
00000120: 95f5 b13c 3b01 153e 7303 1dbe 45da ac3d
00000130: 067e b4be 4a33 95bd c6d3 84bd 54c6 d43d
00000140: b3a3 82bb 6006 12be 26d9 a33d 98d7 e33d
00000150: 47f3 8f3d 6b6d 993c 4c87 813d fc80 cbbd
00000160: 7eef b03d 5428 1d3d cd9c 7c3d 5879 bc3c
00000170: 6548 48be d965 0abe 9854 a7bd 28d7 77bb
00000180: 4640 e33d 1f83 a6bb efc3 033e 86ad 0a3e
00000190: 1807 ff3b 4e02 3d3e 6f06 53bd 81e1 d8ba
000001a0: 1101 c7bd 2c37 65bd 42cd 45be a88a 42ba
000001b0: 4480 8e3d f8a8 55bd 288a 9fbd ea28 1e3e
000001c0: 0862 03bc 6fa4 52be 573d 293d 39b4 5b3d
000001d0: 979c 903b 74ed da3d 6914 87be 38cf 60be
000001e0: 10c4 cd3c 1da2 103d c1cf cabd 2243 05bd
000001f0: 8ddd 273e 7a77 833d 63dc 813c 4ca1 a93d
00000200: 65f7 30be 2188 f63d 0b6d 31be 79fe 7fbb
00000210: 001f b93d eab5 4abe cf90 083e af8d 8c3d
00000220: 475f 003d 559e babd f52c 2c3e 058f 42bd
00000230: 01a1 213d 9a7d 9b3d 3af0 26be e2dc a03d
00000240: 0319 013e 3abf d5bb ac73 13be b92a 9f3c
00000250: 5d55 86be 3995 5abd d6e3 db3d cc8e 153e
00000260: c3e3 d8bd d0c2 72ba d339 9dbd dbe6 bdbd
00000270: 2ed4 0f3c 554f a43d 5efd 653d f27e 143e
00000280: 6a4d eabd f966 7b3c 4ad5 483a a134 503e
00000290: cba0 0c3d 8f15 66bc 387a 123d 2484 e83b
000002a0: 054c 3a3d 649f 10bc a4aa 66bd 8178 083e
000002b0: 6575 42be a474 dfbd 19b1 0b3e bf07 fd3b
000002c0: 35dd 843c 0b51 d5bb 3729 c9bd 465b e13c
000002d0: 495b 91bd 0da0 cbbd 386c 0e3e d37d e5bd
000002e0: b530 23bd 3e16 04bd 046c 8b3e 4447 f23b
000002f0: c121 06bd bae1 df3b 5a44 423e 814d 213d
00000300: c6c6 66bd 6726 853d 7cba 863c 7850 2abe
00000310: 4c58 f53c b39a 33bd 8bb2 c7bc b289 43be
00000320: 0762 113d 3e6d 2dbb 8be9 42bc 1669 ef3c
00000330: a094 ccbd 9182 0abd 56f3 c7bd 2278 cebc
00000340: 2159 b9bc 9b8a 93bc 1647 673e 1d07 dc3d
00000350: 5830 cbbd 9c56 57be 5a72 85bc f728 1d3e
00000360: 593a d5bd b50c 1b3e ca44 cebd e27c ed3c
00000370: 4261 7dbc 1948 0dbe 4146 edbd 997a 5cbd
00000380: 7851 e13d 36a2 9d3d 7f89 a2bd 9eb9 b3bc
00000390: 7c0a 923c d308 29bd 615b 67bd f4b0 023e
000003a0: 298e 073e 6d27 9abc 17b2 133c 8127 0dbd
000003b0: b18d cc3d 2069 5b3d 9535 3f3d 2087 013b
000003c0: b569 b6bd a34b 85bb feda 40be 5775 65bd
000003d0: 56e0 07be 6a37 60bd 360c 5c3c c653 773d
000003e0: 6b3a 9dbd 50ba 103d ad20 cdbc 1b71 413e
000003f0: 89cd 7dba f9b9 0e3e 1ffd 25be a6f5 4dbb
-0.03706038 0.070460364 -0.038205944 0.0058005895 -0.08135498 -0.18120389 0.11637961 0.17062718
-0.052715305 0.17506187 0.17420863 -0.014213648 -0.0793328 -0.055110134 0.113239594 -0.033980373
0.107415296 0.037130367 -0.01974548 0.04294824 -0.008565112 -0.011941175 0.121594995 0.037133064
0.010750562 -0.09140263 0.06876874 -0.042045057 0.016867613 0.014553895 0.08882635 0.05426484
-0.039969362 -0.08187014 0.13532895 0.15566546 0.22694772 -0.004346337 -0.15428887 0.0056657046
-0.12583569 0.00792307 0.03837936 0.13766828 -0.0306781 0.09657386 -0.061358232 0.022484332
-0.12879522 -0.007897907 0.104173176 0.043946788 0.14916624 0.07516967 -0.07386089 0.12501371
0.027712574 -0.048626136 0.08303632 0.31738424 0.07706665 -0.019991545 0.11482386 0.048142686
0.038977657 -0.028373983 0.1595304 -0.009803611 0.068389155 0.13245167 0.076398306 -0.027159778
0.021723548 0.1455125 -0.15333347 0.08440069 -0.35252398 -0.07285173 -0.06485705 0.103893906
-0.0039867996 -0.14260244 0.08000402 0.111251056 0.07028823 0.018728932 0.06324634 -0.09936711
0.086394295 0.038368538 0.061672974 0.02300708 -0.19558866 -0.13515414 -0.08170432 -0.0037817452
0.110962436 -0.005081549 0.12867711 0.13542756 0.007782828 0.1845791 -0.051519807 -0.0016546698
-0.09717 -0.05596082 -0.19316581 -0.0007421174 0.069580585 -0.052163094 -0.07790023 0.15445295
-0.008018978 -0.20570539 0.041318264 0.05363867 0.004413198 0.10689822 -0.2638276 -0.21954048
0.025117904 0.035310853 -0.09902907 -0.032534726 0.16393109 0.06419273 0.015852159 0.08282718
-0.17281874 0.12037683 -0.17326753 -0.003906159 0.09039116 -0.19795957 0.1333649 0.068629615
0.031340864 -0.09112231 0.16814025 -0.047499675 0.039460186 0.07592316 -0.16302577 0.0785463
0.12607197 -0.00652304 -0.14399594 0.019429551 -0.26237002 -0.053364966 0.10736816 0.14605254
-0.10590317 -0.00092605967 -0.07677045 -0.09272548 0.008778615 0.08022944 0.056149833 0.14501551
-0.11440547 0.015344375 0.0007661177 0.20332576 0.03433303 -0.014043226 0.035761088 0.0070958305
0.045482654 -0.008827064 -0.05631508 0.13327219 -0.18990095 -0.10910919 0.13641776 0.0077218707
0.016218761 -0.006509905 -0.09822314 0.027509343 -0.070974894 -0.09942637 0.1390847 -0.1120564
-0.039841373 -0.032247774 0.27230847 0.0073937494 -0.032747034 0.0068323286 0.18971387 0.039380554
-0.05634191 0.06501465 0.016446345 -0.16632259 0.02994933 -0.043848705 -0.024377128 -0.19095495
0.035493877 -0.0026462818 -0.011896501 0.029224914 -0.099892855 -0.033815924 -0.097632095 -0.025203768
-0.022625508 -0.018010428 0.22585711 0.10743544 -0.0992133 -0.21029133 -0.016289879 0.15347658
-0.104115196 0.15141566 -0.10071714 0.028990213 -0.015465083 -0.13797034 -0.115856655 -0.053827856
0.11001867 0.07696955 -0.079363815 -0.021939095 0.017827265 -0.04126818 -0.05648363 0.12762815
0.13237824 -0.018817628 0.009014628 -0.034461502 0.09987963 0.053567052 0.04668196 0.0019764379
-0.08906881 -0.0040678545 -0.18833539 -0.056020107 -0.13269171 -0.054740347 0.013430646 0.060382627
-0.07677158 0.03533393 -0.025039995 0.18890803 -0.0009681811 0.1393813 -0.1620984 -0.0031426935

fc2.bias f4 [128]
00000000: fafa 273d ca99 6f3c f216 50bd 7461 02bc
00000010: 3eb3 8bbc 4197 ab3c 2849 663c 494c 1fbd
00000020: d323 83bc 8434 213d a8d1 313c 0e85 82bc
00000030: 98b9 b4ba 08a1 1c3d 9b33 b83b e2b0 dd3d
00000040: 785f 2a3c c7b7 fa3b ba2c 54bc ecce 38bd
00000050: 35af bfbc d9c7 06bd 04d8 13bc b3db 823d
00000060: 3741 ce3c b8b1 c8bd 436f 41bd d061 453d
00000070: cff3 5c3c 78e2 c43b 50d5 9cbd 96b7 fcbc
00000080: 0005 8cbd ae4c aebc a1c2 95ba 79e1 053d
00000090: 1459 6cbd b008 edbc 9199 873c 3387 81bc
000000a0: cbac 953d e6f4 44bd 99ce 0abd b0ab 10bd
000000b0: 24f5 99bc 408b bc3c 864e 643d 10ea 16bd
000000c0: 24ac f6bb 5c93 9e3d 0b22 4fbc 15cd a8bc
000000d0: 4d2d ea3c 655c 9bbd fb78 03bd 5ed4 433d
000000e0: 43f5 843c edc4 553d 605c fd3a 6c5c 613d
000000f0: 0fd5 25bd d68c 5b3d 367f 1cbc 6863 7c3d
00000100: 3d32 b4bd c24d a63c 6ab7 8b3c 3772 61bc
00000110: 07c3 5d3c e4a8 4d3d 104e f838 2d93 7a3c
00000120: 675a 243d a521 1a3d 860e 843c 6f48 833d
00000130: 92ba 7fbd 245a 8e3d 9d33 853d dff3 1c3d
00000140: 20c7 86bd 0365 c5bc a45e 8a3d 05f0 71bb
00000150: 1baf 01bd 37d9 46bd bcc1 f4bb e33a 8a3d
00000160: b61e c3bc 769b 803c bad7 2a3d 4874 1c3d
00000170: 5939 c1bd e126 63bc 6ee4 02bc b077 f43b
00000180: ecfb 00bd 776b 5a3d 71f7 d93b 9497 fabc
00000190: 2eed 3abd e518 ec3d f8c9 fb3c 85f9 b8bd
000001a0: be4e 993d 114c 4bbd e5fc afbd 1b38 a13d
000001b0: 11e9 1d3d 94ca 0abd 1e6c e83c 9697 8bbd
000001c0: 9427 a03d c9c2 40bd 8b0f b83d 545b 23bb
000001d0: dece e73d 99bb d33c 4909 dd3d 5410 2e3d
000001e0: d4c4 21bd 1a25 523d af84 04bd 84cb e23c
000001f0: c048 0bbe 46c5 40bc f8fb 0ebd a1b9 3abd
0.041010834 0.0146240685 -0.050803132 -0.007957805 -0.017053243 0.020946147 0.014055528 -0.03889111
-0.016008293 0.039356723 0.010853209 -0.015932586 -0.0013788221 0.03823951 0.005621386 0.10824753
0.010398738 0.0076513025 -0.012950117 -0.04511921 -0.023398975 -0.032905433 -0.00902367 0.063895606
0.025177581 -0.09799522 -0.047225248 0.048188984 0.013485863 0.0060084425 -0.07657874 -0.03084926
-0.06836891 -0.021276798 -0.0011425802 0.03268573 -0.05770214 -0.028934807 0.016552718 -0.015811538
0.07308348 -0.048085116 -0.033888433 -0.035319984 -0.01879365 0.023015618 0.05573895 -0.036844313
-0.007527845 0.0774295 -0.012642394 -0.020605603 0.028586054 -0.07585982 -0.032097798 0.04780995
0.016230231 0.052189756 0.0019329898 0.05501978 -0.04048639 0.05360111 -0.009551814 0.06161824
-0.08798645 0.02030075 0.017055232 -0.013760141 0.013535268 0.050209895 0.00011840102 0.0152938785
0.040125277 0.037629742 0.016120207 0.064103 -0.062433787 0.06950787 0.06503985 0.03831851
-0.06580949 -0.024096018 0.067563325 -0.0036916744 -0.031661134 -0.048546996 -0.007469384 0.06749513
-0.023818355 0.01569913 0.04170964 0.038196832 -0.09434766 -0.01386425 -0.007989032 0.007460557
-0.03149025 0.053325143 0.006651812 -0.030589856 -0.04563635 0.11528186 0.030735955 -0.09031967
0.07485722 -0.04963309 -0.08593158 0.078720294 0.038552348 -0.0338846 0.028371867 -0.06816022
0.07820049 -0.04706076 0.089873396 -0.0024926262 0.11318754 0.02584629 0.10792787 0.04249604
-0.03949435 0.051304914 -0.0323531 0.027684934 -0.1360197 -0.011765784 -0.034908265 -0.045587186

fc3.weight f4 [4, 128]
00000000: ccea b6bd fa4a aabc 325d f8be dfe9 f73c
00000010: 9a05 f93d 1b92 c7be 5edd 03bd ff8b 7a3e
00000020: 8fbf 773e dfd0 c43d 4cf6 f6be 674f 523d
00000030: b126 7a3d 7204 1e3e e6e4 033b 0cf3 0ebd
00000040: c31e c23d 65a7 bbbe 81eb 223e 2ada 92be
00000050: 5995 113c 14d3 103e a898 c83d 22b5 473d
00000060: 5fee 1f3d c34e 80bd 8831 073e e457 003f
00000070: 9b20 d9bd 52be bc3d c08e 0b3e 4094 3dbe
00000080: 6a5d 663e f852 523e aa98 16be 0377 c23d
00000090: e655 a63e 3867 91be 46da 80be 34f1 243e
000000a0: a4aa 17be 81c4 8cbc a199 273e 625d 5c3d
000000b0: dd15 95be d6e4 623e ce67 1a3e a9f8 a23e
000000c0: aa30 113e 43a6 1b3e f7bc 253f fc79 a73c
000000d0: 25dd f53d 43ee 273e 49fa 1f3e 2111 6d3d
000000e0: 830a 8bbb a22e 553d 68b6 cf3a ec7e c23d
000000f0: 5849 84bd 63ab 90be 13aa f73d 3767 173e
00000100: 313c d0be f454 09bf f921 30be 47a7 483d
00000110: 7903 91bd 6c01 843e 8c11 a8bb 365e 0b3e
00000120: afa9 213e 61e7 76be de41 023e d391 00be
00000130: 3972 a33c f7f8 ae3d 6651 f73d b8ea c63e
00000140: dd92 8cbe 934b d63c 2890 183c 2695 44be
00000150: bfc2 49bd 16ff 43be a05a 77bd 22b8 a83d
00000160: e3f4 e23d 5b13 f5bd 194a 093e 60fc 623d
00000170: 5ccd 5bbe d068 42be d636 ff3d 878f 59bd
00000180: aed2 643c d556 e33c 6ed1 983d 3e6a 4abe
00000190: 5db9 4f3e bf9e 1f3e 84ec 38be 0cc5 4fbd
000001a0: cec8 b5be 78d2 07bf ef22 2a3e b262 bb3e
000001b0: 0f7c b83c 5c61 983d 14fa c3be ce39 acbe
000001c0: 83af 7dbd 10dd 9abd 15e4 643d b47d 333d
000001d0: 04c6 9cbe 0406 bcbe 6c7a e63b a1f4 94be
000001e0: a840 b63c 4e74 f93d f371 37be c9de 0fbe
000001f0: d10b 9abc 4944 e1bc 6d14 703c 4e19 90bd
00000200: 4be7 043e 0bab 1cbc 6ee5 13bd bbfd cc3e
00000210: 17f3 4abd 105f 3ebe 0191 9f3c e297 3f3e
00000220: 5bf8 883d 10fc 703e 9e09 81be 27c2 f4bd
00000230: 08cf 963e be57 85bd e394 5a3e 1206 013e
00000240: 7803 b73e c992 9d3e aab9 b73d 7a0e dd3d
00000250: 9d11 9fbe cef6 f8be b1c6 c7bc 21bc bdbd
00000260: 7f08 10be c081 5c3f 8852 10bb 2419 d5bd
00000270: 85de 4bbe 3dd6 dbbc fb76 053c 5484 98bd
00000280: 5a48 063f 167f b83c 8857 b43d 617d 143d
00000290: 14da d53c f74a f93d cee5 133d 5c9b 6c3e
000002a0: c814 eebe 29cf 51be 74e3 ab3e 5806 25be
000002b0: a2f8 593c 7b50 893e 67ee 813f 0254 46bd
000002c0: 87c3 733e 28a4 003e 1078 9bbe a269 1a3e
000002d0: 7f94 cebc c364 debd 60ab 6d3d 5d2f 9a3e
000002e0: fed4 e5bd add6 16be 6d6c 0d3e 7e8b fb3c
000002f0: 3330 8dbe ffdd e43c c2cc 7bbd 0fda 0d3e
00000300: 931a 2e3e f35a 5d3d a08f cabd 8535 e73d
00000310: 5496 033e 4280 7e3e 2bbd 61bd 1c30 1d3e
00000320: e532 a0bc 0549 9e3c 7b6c 963d 2832 d239
00000330: ac73 64be 8db0 17be f575 b43e 0584 ac3d
00000340: 5ccc bebb c41d 9ebc 6ae2 8abd 3034 c23d
00000350: ea94 ec3e 39da 40be 188d 2c3d 4bab 413c
00000360: 36f9 8d3e 0bd2 44be 2d3b 9a3e 748f 32bd
00000370: ead6 b9bc 9fe6 d8be f23a 8a3e c4c2 a5be
00000380: de61 5d3e b7b2 0ebe 051a 973d d0f8 643d
00000390: 1377 1cbe 7a91 b4be 0009 0c3e e9c3 4d3f
000003a0: cf73 c6be 6b76 06be 50f4 01be 379f 08bd
000003b0: c07c f6bd 2955 0d3e 7b0a 8fbd 34ed 18be
000003c0: b0bc 60be 433c 98be 3883 8dbd 2e9e c0bd
000003d0: c536 c53d e5ce 8e3e f3fd 43be de01 543e
000003e0: 5073 1fbd f71e fe3b 828d 043e 3fc7 6ebe
000003f0: 14f0 17be 2ae3 f2bd 4fef 923d 32c9 923e
-0.08931503 -0.020787705 -0.48508602 0.030262886 0.121592715 -0.38978657 -0.032193534 0.24467467
0.24194168 0.096101515 -0.48234785 0.051345255 0.061072055 0.15431383 0.0020125448 -0.034899756
0.094785236 -0.3665115 0.1591015 -0.2868207 0.008885705 0.1414302 0.09794742 0.048756726
0.039045688 -0.062650226 0.13202488 0.5013411 -0.10601922 0.09215988 0.13628674 -0.18513584
0.22496572 0.20539463 -0.14706674 0.09495356 0.3248741 -0.28399062 -0.2516653 0.16107637
-0.14811188 -0.017183544 0.16367199 0.053799994 -0.29118243 0.22157606 0.15078661 0.31830338
0.1417872 0.15200143 0.6474146 0.020443909 0.120050706 0.16399483 0.1562282 0.057877664
-0.0042431965 0.052046426 0.0015847208 0.09496865 -0.06459302 -0.28255758 0.12092986 0.14785467
-0.40670922 -0.53645253 -0.1720046 0.048987653 -0.070807405 0.25782335 -0.005129045 0.13610157
0.15787385 -0.24111702 0.12720439 -0.12555628 0.019951927 0.0854358 0.120760724 0.3885095
-0.27455798 0.026159083 0.009311713 -0.1919752 -0.04925799 -0.19140276 -0.06038916 0.082382455
0.11081865 -0.119665824 0.13407172 0.055416465 -0.21465057 -0.18985295 0.12461631 -0.053115394
0.013966246 0.027751366 0.074618205 -0.1976709 0.20285554 0.155879 -0.18058974 -0.050725028
-0.35504764 -0.53055525 0.16614889 0.36598736 0.022520093 0.07440445 -0.38276732 -0.3363785
-0.06193496 -0.075616956 0.05588158 0.04382105 -0.30619824 -0.3672334 0.007033637 -0.29092887
0.022247627 0.121803865 -0.17914562 -0.1404983 -0.018804463 -0.027498381 0.014653307 -0.070360765
0.12978856 -0.009562264 -0.036107473 0.4003733 -0.049548235 -0.18590951 0.019478323 0.18710282
0.06687995 0.23533654 -0.2520265 -0.11951094 0.29454827 -0.06510876 0.21345858 0.12599972
0.35744834 0.3077605 0.089709595 0.10793777 -0.31068125 -0.48625797 -0.024386736 -0.09264398
-0.14065741 0.8613548 -0.0022021849 -0.10405186 -0.19909103 -0.026835555 0.008146043 -0.074471146
0.5245415 0.022521537 0.08805758 0.036252383 0.026104964 0.121725015 0.03610783 0.2310614
-0.4650023 -0.20489182 0.3357197 -0.16115701 0.013303908 0.26819214 1.015088 -0.04841996
0.23805057 0.1256262 -0.30365038 0.15079358 -0.025217293 -0.108590625 0.058024764 0.3011426
-0.11222266 -0.1473033 0.13810892 0.030706163 -0.27575836 0.027937887 -0.06147457 0.13852714
0.17002325 0.054041814 -0.098906755 0.11289505 0.12850314 0.24853614 -0.055112045 0.15350384
-0.019555518 0.019321928 0.0734491 0.0004009169 -0.2230975 -0.14813443 0.35246244 0.08423618
-0.0058227014 -0.019301303 -0.06781466 0.0948261 0.46207362 -0.18833245 0.042126745 0.011820625
0.27729195 -0.1922075 0.30123273 -0.04359384 -0.022685487 -0.4236345 0.26998097 -0.32375157
0.21619365 -0.13935362 0.0737801 0.05590135 -0.15279798 -0.3526724 0.13675308 0.8037706
-0.3876023 -0.1313111 -0.12690854 -0.033354964 -0.12035513 0.13802017 -0.06984421 -0.14934236
-0.21946979 -0.29733476 -0.069097936 -0.094051704 0.09629587 0.27892223 -0.19139843 0.20703837
-0.03892833 0.007755156 0.12944606 -0.23318194 -0.14837676 -0.11859734 0.07174551 0.28669125

fc3.bias f4 [4]
00000000: 4261 943d 1652 9bbd cc5e bf3c 8a06 bbbc
0.07245113 -0.07584016 0.023360632 -0.022830267
