models/checkpoint_critic_multi.pth (torch_old, 177034 bytes, 13 tensors)

fcs1.weight f4 [256, 33]
00000000: f885 10bd b137 ae3d c8dd 053d defa 90bd
00000010: 527f afbc 2d7f 9d3d 36f0 f93b f23f e5bc
00000020: 9e3a 5bbb 3e20 8abd 07e2 91bc 6f82 1c3d
00000030: 3e93 edbb 235e fc3d dbf5 8d3c 50c3 72bc
00000040: 9106 81bc 33a5 513c 6da5 f13c 9e44 0c3b
00000050: b749 73bd 4a2b 203d 20e3 003d d0a3 203d
00000060: 304f 153d bf83 a0bc 13ac 2fbd 7fac d73d
00000070: 2589 593c 0021 ca3c 397f 00be b86a 57bc
00000080: ca95 2cbe d6b2 bc3d 7562 5e3d 88f3 353d
00000090: 9710 0e3d 6861 20be 1a13 4f3d 26e2 ebbb
000000a0: 562b ebbc 0192 9a3c dd2b 783a 78f5 ef3c
000000b0: 3692 9d3d a27e b43b d1f0 79bc 9c31 10bc
000000c0: 1c1b 5abd dcd7 873d e615 4b3b 3a03 2d3d
000000d0: 4451 263c 8af8 153c 96d1 c4bc 3519 22bb
000000e0: da38 95bb 16ee 7a3c 5ba6 f5bc 750b 2dbd
000000f0: 5cf6 63bd 896b 05bc 68b1 ba3c 3334 e4bc
00000100: a0fe 583c 9669 f6be aba8 803c c1c4 8dbd
00000110: e12a bcbc c9b0 ac3d 5e96 58bd d810 bf3c
00000120: 0117 633b 445b 8a3b 68f7 6dbd 816f b43d
00000130: b37f b6bc 8f49 c0bc d9dd ebbc 20ed a1bc
00000140: 135f 563d 177c d13c 8de4 e3bc f1dd 003d
00000150: 35eb 493d ed6d 063d 686a 12bd b3aa 833d
00000160: 1115 803c 8a76 12bb df7e f83c 5848 4e3d
00000170: a3df dc3b b793 033b 5bdf 8b3d aa3a 3ebd
00000180: 3ab6 b93c a885 253c 3380 66be 48f3 0fbc
00000190: 1fca 02bd e930 0d3c 01d6 1dbc f68e 053c
000001a0: 5dad ddbd 86fd c83d e457 11bc b6f1 d6bc
000001b0: cf5d fd3c 1de2 8abc 47e9 3a3d b7b8 f4bb
000001c0: f6be 733d 27a9 403e 8974 e4bd febf 16bc
000001d0: 1a94 c33b 4d74 48bd 0017 bfbc c8e4 93bb
000001e0: e2c1 c8bb 0612 57bc d8e9 24bc 6caa 683d
000001f0: 3a26 70bc 8959 2fbd 253c 383c e789 a83d
00000200: 00c9 003a 184a 88bd 52ce 40bd f7c5 ca3d
00000210: 329b 043d c0ff d13c 1f92 953d 558e 603d
00000220: bb5b 2f3d 4c09 c53a 9f30 a23b a81d afbc
00000230: 5e99 8abc 943b bb3a 4fe5 2cbd e571 0e3d
00000240: db30 22bc bbcc 12bd d381 28bd 24b0 b6bc
00000250: d598 323d ed22 b13d e68d febc f715 0a3b
00000260: 7221 413a 2728 fe3c 476b aebb 0cae a5bc
00000270: 3403 86bd 5ac0 24bd dfdb 93bc 4ff2 103d
00000280: 310f bebd 406d e6bc 2dfe 84bc 582f 39bd
00000290: 2938 b13e 8f3f 493b c06a 8cbc 25fd 133d
000002a0: da3e da3b 73bc dcbd 1038 16bc 4a8d 143d
000002b0: dac0 28bd 4201 883b 61ca 093d 119c 393b
000002c0: 5630 b3b9 c8ff 17bd 9649 18bd a974 a7bd
000002d0: 2807 913d 4b92 1a3d e02e 903c b8c4 dfb9
000002e0: 718d 153b 8e22 7abc 0aa2 08bd 4248 83bd
000002f0: 7d1b 013d b2c4 63bd 8e19 47bd 3bf6 82bc
00000300: 1355 223d 17e2 da3c 78ef 433d c5a4 64bd
00000310: 8475 3dbd ce3b f73c 4981 f63c d7fa 5d3d
00000320: b577 b4bd bf88 88bd 185a b53d b4c0 263e
00000330: 31a6 7abd 8057 f53c 7b95 ce3b 746b d23c
00000340: 5dc0 6a3d b7e8 cbbc b8b8 583c 8267 1dbd
00000350: 9d70 c6bc 98d1 cabc fcfd 103d 29f1 92bd
00000360: f7dd 223e d8b9 b33c 9264 0cbd b625 5f3d
00000370: 1c8a 3bbd d214 003d 2874 973d 16d9 30bd
00000380: db96 063d e2d4 b03d f61c 773c 9ee4 32bd
00000390: 50fe e1bc 7483 a13c 29c9 443e d44c c2bc
000003a0: d265 2a3e 9f8b 5d3c 79b3 35bd dffd d83d
000003b0: 8839 1a3d 6590 bb3c 9093 7e3c 1480 f03c
000003c0: 1692 4cbc 582f de3c 4c0f de3d 3d09 503d
000003d0: 16f1 8d3d 900a 57bd 4648 4ebd caac ef3c
000003e0: b453 073d 651a 00bd a21b 483d e248 00bd
000003f0: ad85 09bc b650 9bbd d15f 09bd e6c6 3cbd
-0.035284013 0.08506716 0.03268221 -0.07079099 -0.021423016 0.076902725 0.0076275123 -0.027984593
-0.0033451687 -0.06744431 -0.017807974 0.03821033 -0.0072502187 0.12322643 0.017329147 -0.014817074
-0.015750201 0.012795734 0.029497826 0.0021403204 -0.05939647 0.039103784 0.031466603 0.039218724
0.036452472 -0.019594071 -0.042888712 0.10530948 0.013277327 0.024673939 -0.12548532 -0.013148002
-0.16854015 0.09213798 0.054293115 0.044421703 0.03468379 -0.15662158 0.050555326 -0.00719859
-0.028707188 0.018868448 0.00094669854 0.029291853 0.07693903 0.00550826 -0.015255169 -0.00880089
-0.05324851 0.06632969 0.0030988394 0.042239405 0.010151211 0.009153495 -0.02402572 -0.0024734263
-0.0045538964 0.015315553 -0.029986551 -0.042247254 -0.05565487 -0.008143314 0.022789672 -0.027856922
0.013244301 -0.4812743 0.015705427 -0.069222935 -0.022969665 0.084321566 -0.052877776 0.023323461
0.0034651163 0.0042223055 -0.058097273 0.0881033 -0.022277689 -0.023472575 -0.028792309 -0.01976639
0.052336764 0.025571866 -0.027818942 0.03146166 0.049296577 0.032819677 -0.03574601 0.06429043
0.015635045 -0.0022348487 0.030333934 0.05036196 0.0067405268 0.0020077059 0.06829711 -0.046442665
0.0226699 0.010102667 -0.22509842 -0.00878603 -0.03193104 0.008617618 -0.009633542 0.00815176
-0.10824082 0.09813981 -0.008871052 -0.026238304 0.03092852 -0.016953522 0.045632627 -0.007468309
0.059508286 0.18814526 -0.1115504 -0.009201048 0.005968583 -0.048939038 -0.023326397 -0.004513357
-0.0061266283 -0.013126856 -0.010065518 0.056803152 -0.014657551 -0.042809997 0.011244808 0.08229428
0.0004912764 -0.06654757 -0.047071762 0.0990104 0.03237457 0.025634646 0.07303261 0.05482324
0.04281209 0.0015032678 0.0049496437 -0.021376446 -0.016918834 0.0014284723 -0.042210873 0.034776587
-0.009899343 -0.035839777 -0.041139435 -0.022300787 0.043602783 0.0864924 -0.031073522 0.002107022
0.00073673495 0.031025006 -0.005322847 -0.020224594 -0.0654358 -0.040222503 -0.018049179 0.035387333
-0.09280241 -0.028128266 -0.016234482 -0.045211166 0.3461316 0.003070805 -0.017140746 0.03613009
0.0066603245 -0.10778131 -0.00916864 0.036267556 -0.041199543 0.0041505406 0.03364027 0.0028321783
-0.00034177554 -0.037109166 -0.037179552 -0.08176548 0.07081443 0.037737172 0.017600477 -0.0004268044
0.0022819901 -0.015267028 -0.033357657 -0.064102665 0.031520355 -0.055607505 -0.048608355 -0.015986552
0.039631914 0.026719136 0.047835797 -0.0558212 -0.04625465 0.030179884 0.030090945 0.054194298
-0.08811895 -0.06666707 0.08855075 0.16284448 -0.06119365 0.02994895 0.0063044406 0.025686003
0.05731236 -0.02489124 0.013227634 -0.03842879 -0.02422362 -0.024758145 0.03539847 -0.07174904
0.15904985 0.021939203 -0.0342756 0.054479323 -0.04578601 0.031269856 0.07395202 -0.04317578
0.03285871 0.08634354 0.015082588 -0.043675058 -0.027587086 0.019716002 0.19217362 -0.023718275
0.16640404 0.013522058 -0.04436061 0.10595297 0.037652522 0.022896001 0.015538111 0.029357947
-0.0124860015 0.027122185 0.108427614 0.05079006 0.06930749 -0.052500308 -0.050361894 0.029257197
0.03303881 -0.03127517 0.048854478 -0.031319506 -0.008393687 -0.07583754 -0.033538643 -0.04608812

fcs1.bias f4 [256]
00000000: 12a4 a73c c8de 263e 44b7 2ebd 626a c83d
00000010: 3eee 4e3b 1a20 65be b637 43be 01ee eabd
00000020: ba27 333b e151 173e 737b c7bd b257 45bd
00000030: e116 c83d 5f42 2bbd 495c 2fbd 707f 57bd
00000040: 8447 8cbd 1e5c 22be fe30 363e c0c6 9ebd
00000050: f871 be3d 7da4 da3c ca4e 8e3d c55d a3bd
00000060: 82c8 0abd d65a 46bd 216d e33a 155c c1bd
00000070: 23d4 733d 9cb5 8b3c 3985 9b3c 8e60 bebd
00000080: 320e 02be d5ea bdbc 2707 b63d fff9 06bd
00000090: b406 453e 7e5e 213e 9013 cabd 4eea 983d
000000a0: 4e56 0abe 6886 843b f793 2b3e 3829 2ebe
000000b0: 9c6c b4bd f92c 41be b6a1 113b 0f95 3f3d
000000c0: b38d 133e fa85 d5bd 72a5 0fbe 1250 b73d
000000d0: 979d 1bbe 05c4 a2bd c062 c5bd 3171 1d3e
000000e0: 6fe9 8ebd 46c7 eb3c 7f21 aebd 6a02 d03c
000000f0: 4157 9cbd 6f0f 453e 4d88 17be fa33 c0bd
00000100: a2c0 e7bd fa53 cfbd 0f47 d53d b852 b93d
00000110: 37b1 4c3d b9f0 ce3c 8ce1 0f3e fa7e 933d
00000120: cdbb 9ebd 2bfe cbbd fd7d 6f3d 2d6b b23d
00000130: efb7 2a3e 605e ee3c 91b0 1b3e 0c0d 63be
00000140: 7b06 a73d 05e2 153e 7560 d7ba 777c 313e
00000150: 7869 103e 45e4 f7bd 383d a23d a78d e23d
00000160: f44a 893d e6e4 003e b47e bb3d 713a a23d
00000170: 64fe c83d 0144 41be f0a9 2dbe c334 c63c
00000180: 9e7f 5f3e b5ee a3bd 1596 d23d 3a17 8fbd
00000190: 8315 5f3d ec88 96bd b610 1d3d 4efc ecbd
000001a0: b031 59be 71b0 1d3e 6252 dbbd 59a4 7e3d
000001b0: 35d3 03bd 957a 4abd bca9 243e fdf9 253e
000001c0: 8923 a2bd 11bc d33d 07f5 533d 5040 09be
000001d0: 1c74 2a3d 24f0 35be 7e38 abbc a92c 4abe
000001e0: c404 c83d 4934 873d 3619 d13d 1129 073c
000001f0: 7adb 2fbd d3c1 043e 213b ed3d ce6c e73d
00000200: bbbd 01bc 091f 0f3e b185 04be b632 3abe
00000210: e55b 483d e366 303e ca66 ccbc 2050 c2bc
00000220: 1871 29be be7d a43d f05a 41be aa8f 79bd
00000230: 1d57 f43d f4c1 dfbd d0b1 1dbe a422 febc
00000240: d4c8 2b3d bcb4 97bd 2eef efbd 7737 78bd
00000250: 01d1 1f3e 6204 c73d d26c 253a 851e 8bbc
00000260: 8a9b 9cbd dec6 083e 5d44 5d3d 2d97 c53c
00000270: 2022 733d 0fca 22bd 6491 5fbd 4a53 0abe
00000280: a924 ea3d 6569 f9bd 5c40 9dbd 8469 0bbe
00000290: 8832 d9bc fdbd 903d d18a ca3c 5cd7 bdbd
000002a0: f09f abbd e7fc 553e 24a0 9c3c b4d7 293d
000002b0: c67a 3a3e a8f5 0c3e aea2 813d 84ca 333d
000002c0: c3f5 183e 4bab cbbd dca1 7d3d 3776 22be
000002d0: df0b 07bd 5a7c df3d 01f1 f6bd 3d58 a0bd
000002e0: 6d23 46bd 8a77 55bd afdd 20bd fe76 aabd
000002f0: 55c2 97bc c683 b73d 1fd1 15be 664b 1a3e
00000300: f3d6 bfbc fceb 0e3e f5fa 203e c545 a5bd
00000310: 2419 a0bd b444 a6bd 29d9 76bd 5049 c8bd
00000320: d801 24bd 9907 623c f962 0a3d ec77 d2bd
00000330: ce17 d93d 1a4a 643c 0fdb 44bd c50e e33d
00000340: 5252 febd a761 21bd 06ba 193e d6a2 243d
00000350: 14d4 5f3c a381 7fbd c79e a8bc a1f8 ee3c
00000360: 8404 cdbc 0feb e03d fc70 ce3d fb7f fb3c
00000370: a47a c93d fa87 58be 5c63 4bbe 28aa 12be
00000380: da63 183e d291 0dbe 6963 40be 9857 463d
00000390: cc39 52bc 0116 dfbc ccd6 8fbd aa83 fe3d
000003a0: 75ad 64be 1190 42be 84fa 103e 89f4 ebbd
000003b0: 5232 063d 301f af3d 9522 e6bb 3300 22be
000003c0: e499 15bd fbc4 d8bd 580b 103e 8a27 8dbb
000003d0: c294 ac3d 890f 863d 7e4f cb3d f6d0 233d
000003e0: 3e43 883d f119 b8bd e553 e63d 800d 9bbd
000003f0: a5d4 3e3d c3f7 b0bc ae98 493d 3aab 163e
0.020463977 0.16295922 -0.042655244 0.09785916 0.003157511 -0.22375527 -0.19064221 -0.11471177
0.0027336911 0.14777328 -0.09740343 -0.048179336 0.09769989 -0.041811343 -0.04281262 -0.05261177
-0.06849578 -0.15855452 0.17792127 -0.07752752 0.092990816 0.026689762 0.069486216 -0.079768695
-0.033882625 -0.04842647 0.0017351249 -0.094413914 0.05952848 0.017054372 0.018984424 -0.0929576
-0.12700728 -0.023183266 0.08888083 -0.03295326 0.19240838 0.15758702 -0.098670125 0.07466565
-0.13509485 0.004044343 0.16755663 -0.17007911 -0.08809778 -0.18864812 0.0022221631 0.046773013
0.14409523 -0.104259446 -0.14027956 0.08950819 -0.15196835 -0.07947544 -0.09637976 0.1537521
-0.06978118 0.028781544 -0.085024826 0.025391776 -0.0763383 0.19244169 -0.14798088 -0.09384914
-0.11316039 -0.10123439 0.10413944 0.090489805 0.049973693 0.02526127 0.14050883 0.07201953
-0.07750664 -0.09960588 0.05846976 0.087118484 0.16671728 0.029097736 0.15204073 -0.22172946
0.08155533 0.14637001 -0.0016431945 0.17332636 0.14102733 -0.12104086 0.07921833 0.11062174
0.06703749 0.12587318 0.09155026 0.07921303 0.09814146 -0.18873598 -0.16959357 0.02419508
0.21826026 -0.08004514 0.10282532 -0.06986852 0.054463875 -0.073503345 0.038346015 -0.11571561
-0.2121036 0.15399338 -0.10709073 0.062168453 -0.032183845 -0.04943331 0.16080374 0.16208644
-0.07916934 0.10338605 0.05174735 -0.1340344 0.041614637 -0.17767388 -0.020900961 -0.19743599
0.09766534 0.066017695 0.10209887 0.008249537 -0.04293392 0.12964563 0.115835436 0.1130005
-0.00791877 0.13976683 -0.12941624 -0.18183407 0.048915762 0.17226748 -0.024951357 -0.023719847
-0.16547048 0.08031796 -0.18882346 -0.060928024 0.11930678 -0.109256655 -0.15399861 -0.031022377
0.04193957 -0.07407519 -0.11715542 -0.06059977 0.15607072 0.09717633 0.0006310466 -0.016982326
-0.07646854 0.13357112 0.054020274 0.024119938 0.059358716 -0.03974348 -0.054582015 -0.13508335
0.114327736 -0.121783055 -0.07678291 -0.1361447 -0.026513353 0.070674874 0.024724396 -0.09269592
-0.08380115 0.20897256 0.01911933 0.041465476 0.18210897 0.13765585 0.06329857 0.043894306
0.149375 -0.09944781 0.06192194 -0.15865408 -0.032970306 0.1091239 -0.120576866 -0.0782933
-0.04837363 -0.052115954 -0.039273914 -0.08323477 -0.018525282 0.08960681 -0.14630555 0.15067825
-0.023417925 0.13957208 0.15720733 -0.08069948 -0.07817295 -0.08118573 -0.060265694 -0.09779608
-0.04004082 0.013795757 0.033785794 -0.102767795 0.106002435 0.013933683 -0.048060473 0.110868014
-0.12418045 -0.03939977 0.15012369 0.040194355 0.013661403 -0.06237949 -0.020583523 0.02917129
-0.025026567 0.10982334 0.10080144 0.030700674 0.09837845 -0.21145621 -0.19862121 -0.14322722
0.1488184 -0.13825157 -0.18787922 0.04842338 -0.012831163 -0.027232172 -0.07023391 0.12427457
-0.22331794 -0.1900027 0.14158064 -0.11521251 0.032762833 0.085508704 -0.0070231655 -0.15820388
-0.036523715 -0.10584446 0.14066827 -0.004307692 0.08426811 0.06545932 0.09927271 0.039994203
0.066534504 -0.08989323 0.1124647 -0.07570934 0.046589512 -0.021602517 0.049217872 0.14713755

bn1.weight f4 [256]
00000000: b151 183f 485d ce3e 5135 343f 00bc e63a
00000010: 02bb e53e 74e1 cb3e e8c8 ef3d eae1 f33e
00000020: d0c4 1d3f 0015 653c 88d6 683f 777e 483f
00000030: 2449 7e3f baf6 913e ec1a 153e eb20 4e3f
00000040: 6c50 783f 3c94 553e 34a0 533e 321d ed3e
00000050: fed6 6c3f ca69 d83e 00da ac3c 6416 963e
00000060: 2cfe 5a3e 2e81 603f 0882 093e a18c 5f3f
00000070: dcd1 2f3f b424 e93e 52bd bf3e 01b5 463f
00000080: 6816 5e3e 901b 9d3e 53f1 703f 3603 9d3e
00000090: f9fe 0c3f 63f6 673f b0e4 dc3d d92a 153f
000000a0: d88c 033f b085 773e 5457 673f a427 583f
000000b0: ea39 ef3e 3077 e43e 1eba 4f3f 184d ab3e
000000c0: 3477 483f dc73 2a3e 50d7 b63d 3876 553f
000000d0: dc50 573f 90f7 e33d 8860 c73e c15f 363f
000000e0: 4560 443f ac44 4c3f 55b5 593f f4d5 8a3e
000000f0: 7146 1b3f 98f3 6d3f 40a4 b73d f806 533f
00000100: ec61 203f 7a98 053f 70cd 7e3f f4aa 953e
00000110: 3c83 b93e 8084 033e 55c5 6b3f 0cbf 093e
00000120: b978 723f d43d 073e 545f 493f a22a 803e
00000130: 7e7c 703f 4432 293e 2c75 343e 2423 b63e
00000140: c8bb c83d a3aa 793f 3a53 2f3f 54e9 693e
00000150: 68cf f93d 5662 ab3e bf39 133f c4ba 8c3e
00000160: 7361 4a3f c250 823e c923 263f 9b28 5c3f
00000170: 5cff 143e f87d e03d 207d b23c 3316 183f
00000180: 3b7e 643f 905a 393e 6085 dd3e e120 503f
00000190: 8b51 633f ed30 463f 48fe 283f eb36 163f
000001a0: ee65 093f 5dbf 6f3f a191 043f afbe 313f
000001b0: 1c51 ed3e de5f 653f 00b7 923b 3e95 ae3e
000001c0: e09a aa3c 3f0f 1e3f 566d c53e a870 b63d
000001d0: 10ac ef3d 9a82 243f e41c 603f ee09 6d3f
000001e0: 09d8 573f 084c c53d b867 6a3f 4303 7a3f
000001f0: 5133 063f 20a0 a33c c0d1 0d3e e091 6a3d
00000200: 229e 143f e143 693f af1b 523f 607f 833e
00000210: 1490 903e f944 1e3f 183a 6d3e 0a84 e73e
00000220: 2a09 253f 8c41 a23e 69dc 2d3f 4c8d db3e
00000230: 05ca 753f e0a9 b63d 9e0a 6c3f 3b52 563f
00000240: 8000 563d bf14 1e3f a239 df3e 7721 3c3f
00000250: 5686 5c3f 0ce2 6c3e 3ccc 5c3e 98c9 0b3e
00000260: 6ee9 5c3f a04f a63d 783d 413e 0650 733f
00000270: 5df6 413f 16dc 573f 0a48 6e3f e094 823d
00000280: 0e4f c03e b66a ea3e f065 763f a6a8 b73e
00000290: 04dc ee3e 7399 483f 47ad 423f 30d7 313e
000002a0: 9885 863d 2652 9f3e f3d8 283f 5ece 793f
000002b0: 1eb7 393f 7e10 4a3f 1b65 273f 1eee be3e
000002c0: 5ec0 d53e 17aa 6b3f ba43 1b3f 5e93 193f
000002d0: d3e7 4a3f 8844 5c3f 8d86 243f 4c2a e63e
000002e0: 4cc5 8e3e 08e4 483e 5406 803e 332c 683f
000002f0: 44e8 653f 984c 713e c5fa 6b3f 76dc bd3e
00000300: 7e4f bf3e b5a1 283f f0a1 bf3d b815 513e
00000310: e48c da3e 428b af3e 58a0 403f d874 c33e
00000320: e066 973d a876 843d fd98 7b3f acb8 393f
00000330: 008e 163b 90e7 b73d d0a5 3c3e c4ea 733f
00000340: 69a5 453f 51c8 293f cf76 483f 99ae 153f
00000350: bf43 5b3f 2085 c73d 8c95 643f 2682 3a3f
00000360: bb7c 2a3f ddd9 513f 3cfc cd3e c462 863e
00000370: a65b ba3e 50df ff3d 53df 003f 1fd6 413f
00000380: e9d3 173f c826 f73e e96c 303f b074 343d
00000390: 1c60 2f3e 2822 823d 4d41 7f3f e07b 3a3d
000003a0: e2cd 3c3f ae01 5c3f 406c b73e 40a8 d73e
000003b0: 1c26 693f 6000 bb3d 00ba a83a e677 da3e
000003c0: 9438 df3e d437 973e 37fc 093f 491b 443f
000003d0: f37b 443f 3149 253f fb65 5a3f 26a8 883e
000003e0: d68c 083f 97e9 2a3f 1e2a 293f 7827 a43e
000003f0: b4f1 673f 6878 f13d e48b 863e e0e3 a63c
0.5949965 0.40305543 0.70393854 0.0017603636 0.44869238 0.39820445 0.11708242 0.47633296
0.6162844 0.013982058 0.9095235 0.7831797 0.99330354 0.2850855 0.14561051 0.8051898
0.96997714 0.20857328 0.20666581 0.46311337 0.9251555 0.4226821 0.021100044 0.29313958
0.21386021 0.8769711 0.13428509 0.8732396 0.68679595 0.45535815 0.37449127 0.7761994
0.21688235 0.3068509 0.9411823 0.30666512 0.5507656 0.9061033 0.10785806 0.58268505
0.51386786 0.24172091 0.9036763 0.84435487 0.46723872 0.44622183 0.8114337 0.33457255
0.7830689 0.1664576 0.08927786 0.8338351 0.84107757 0.11131203 0.38940835 0.7123986
0.76709396 0.79792285 0.85042316 0.27116358 0.6065436 0.9294982 0.08966875 0.8243251
0.62649417 0.52185786 0.9953222 0.2923199 0.36232936 0.12843513 0.9209798 0.13451785
0.9471546 0.1320718 0.78661084 0.25032526 0.9393996 0.16523081 0.17622823 0.35573685
0.098014414 0.97525996 0.6848637 0.22842914 0.12197763 0.33473462 0.5750999 0.2748624
0.79054946 0.25452238 0.64898354 0.8599946 0.14550537 0.10961527 0.02178818 0.59408873
0.8925511 0.18100953 0.4326582 0.8130017 0.887963 0.77418405 0.66013 0.5867755
0.5367116 0.9365137 0.5178471 0.69431585 0.46350944 0.89599407 0.0044773817 0.34098238
0.020825803 0.61742014 0.3855998 0.08908206 0.1170274 0.6426178 0.87544084 0.92593277
0.8431402 0.096336424 0.9156451 0.97661227 0.5242205 0.019973814 0.13849545 0.057268023
0.5805379 0.911192 0.8207349 0.25683117 0.28234923 0.61823994 0.23166692 0.45217925
0.6446711 0.31690633 0.67914444 0.42881238 0.9601138 0.0891912 0.922037 0.83719224
0.05224657 0.61750406 0.43598658 0.73488563 0.8614248 0.23133105 0.21562284 0.1365112
0.86293685 0.08120656 0.18871105 0.9504398 0.75766546 0.843202 0.9307867 0.06376052
0.37560314 0.4578454 0.96249294 0.35870856 0.46652234 0.78359145 0.7604565 0.17367244
0.0656845 0.31117362 0.6595604 0.97580516 0.7254504 0.78931415 0.6538865 0.37291044
0.41748327 0.9205641 0.6065022 0.5999049 0.79259986 0.8604207 0.6426781 0.44954145
0.278849 0.19618237 0.25004828 0.9069244 0.89807534 0.23564374 0.9217952 0.3708226
0.37365335 0.65871745 0.09357059 0.20418441 0.42685616 0.34285933 0.75244665 0.38175082
0.07392669 0.064679444 0.98280317 0.7254741 0.0022972822 0.08979714 0.18422627 0.952801
0.7720552 0.66321284 0.7830629 0.5846954 0.8565025 0.097421885 0.8929069 0.7285484
0.66596574 0.8197306 0.40231502 0.26247227 0.36398047 0.12493765 0.50340766 0.7571735
0.59307724 0.48271775 0.68916184 0.044056594 0.17126507 0.06354171 0.99709016 0.045528293
0.7375165 0.85940063 0.35824776 0.42120552 0.91073775 0.09130931 0.0012872815 0.426696
0.43597853 0.2953478 0.53900474 0.76604134 0.7675163 0.64564806 0.8531186 0.26690787
0.533399 0.6676268 0.6607989 0.32061362 0.90603185 0.11790544 0.26278603 0.020372331

bn1.bias f4 [256]
00000000: 0000 0000 0000 0000 0000 0000 0000 0000
00000010: 0000 0000 0000 0000 0000 0000 0000 0000
00000020: 0000 0000 0000 0000 0000 0000 0000 0000
00000030: 0000 0000 0000 0000 0000 0000 0000 0000
00000040: 0000 0000 0000 0000 0000 0000 0000 0000
00000050: 0000 0000 0000 0000 0000 0000 0000 0000
00000060: 0000 0000 0000 0000 0000 0000 0000 0000
00000070: 0000 0000 0000 0000 0000 0000 0000 0000
00000080: 0000 0000 0000 0000 0000 0000 0000 0000
00000090: 0000 0000 0000 0000 0000 0000 0000 0000
000000a0: 0000 0000 0000 0000 0000 0000 0000 0000
000000b0: 0000 0000 0000 0000 0000 0000 0000 0000
000000c0: 0000 0000 0000 0000 0000 0000 0000 0000
000000d0: 0000 0000 0000 0000 0000 0000 0000 0000
000000e0: 0000 0000 0000 0000 0000 0000 0000 0000
000000f0: 0000 0000 0000 0000 0000 0000 0000 0000
00000100: 0000 0000 0000 0000 0000 0000 0000 0000
00000110: 0000 0000 0000 0000 0000 0000 0000 0000
00000120: 0000 0000 0000 0000 0000 0000 0000 0000
00000130: 0000 0000 0000 0000 0000 0000 0000 0000
00000140: 0000 0000 0000 0000 0000 0000 0000 0000
00000150: 0000 0000 0000 0000 0000 0000 0000 0000
00000160: 0000 0000 0000 0000 0000 0000 0000 0000
00000170: 0000 0000 0000 0000 0000 0000 0000 0000
00000180: 0000 0000 0000 0000 0000 0000 0000 0000
00000190: 0000 0000 0000 0000 0000 0000 0000 0000
000001a0: 0000 0000 0000 0000 0000 0000 0000 0000
000001b0: 0000 0000 0000 0000 0000 0000 0000 0000
000001c0: 0000 0000 0000 0000 0000 0000 0000 0000
000001d0: 0000 0000 0000 0000 0000 0000 0000 0000
000001e0: 0000 0000 0000 0000 0000 0000 0000 0000
000001f0: 0000 0000 0000 0000 0000 0000 0000 0000
00000200: 0000 0000 0000 0000 0000 0000 0000 0000
00000210: 0000 0000 0000 0000 0000 0000 0000 0000
00000220: 0000 0000 0000 0000 0000 0000 0000 0000
00000230: 0000 0000 0000 0000 0000 0000 0000 0000
00000240: 0000 0000 0000 0000 0000 0000 0000 0000
00000250: 0000 0000 0000 0000 0000 0000 0000 0000
00000260: 0000 0000 0000 0000 0000 0000 0000 0000
00000270: 0000 0000 0000 0000 0000 0000 0000 0000
00000280: 0000 0000 0000 0000 0000 0000 0000 0000
00000290: 0000 0000 0000 0000 0000 0000 0000 0000
000002a0: 0000 0000 0000 0000 0000 0000 0000 0000
000002b0: 0000 0000 0000 0000 0000 0000 0000 0000
000002c0: 0000 0000 0000 0000 0000 0000 0000 0000
000002d0: 0000 0000 0000 0000 0000 0000 0000 0000
000002e0: 0000 0000 0000 0000 0000 0000 0000 0000
000002f0: 0000 0000 0000 0000 0000 0000 0000 0000
00000300: 0000 0000 0000 0000 0000 0000 0000 0000
00000310: 0000 0000 0000 0000 0000 0000 0000 0000
00000320: 0000 0000 0000 0000 0000 0000 0000 0000
00000330: 0000 0000 0000 0000 0000 0000 0000 0000
00000340: 0000 0000 0000 0000 0000 0000 0000 0000
00000350: 0000 0000 0000 0000 0000 0000 0000 0000
00000360: 0000 0000 0000 0000 0000 0000 0000 0000
00000370: 0000 0000 0000 0000 0000 0000 0000 0000
00000380: 0000 0000 0000 0000 0000 0000 0000 0000
00000390: 0000 0000 0000 0000 0000 0000 0000 0000
000003a0: 0000 0000 0000 0000 0000 0000 0000 0000
000003b0: 0000 0000 0000 0000 0000 0000 0000 0000
000003c0: 0000 0000 0000 0000 0000 0000 0000 0000
000003d0: 0000 0000 0000 0000 0000 0000 0000 0000
000003e0: 0000 0000 0000 0000 0000 0000 0000 0000
000003f0: 0000 0000 0000 0000 0000 0000 0000 0000
0.0 0.0 0.0 0.0 0.0 0.0 0.0 0.0
0.0 0.0 0.0 0.0 0.0 0.0 0.0 0.0
0.0 0.0 0.0 0.0 0.0 0.0 0.0 0.0
0.0 0.0 0.0 0.0 0.0 0.0 0.0 0.0
0.0 0.0 0.0 0.0 0.0 0.0 0.0 0.0
0.0 0.0 0.0 0.0 0.0 0.0 0.0 0.0
0.0 0.0 0.0 0.0 0.0 0.0 0.0 0.0
0.0 0.0 0.0 0.0 0.0 0.0 0.0 0.0
0.0 0.0 0.0 0.0 0.0 0.0 0.0 0.0
0.0 0.0 0.0 0.0 0.0 0.0 0.0 0.0
0.0 0.0 0.0 0.0 0.0 0.0 0.0 0.0
0.0 0.0 0.0 0.0 0.0 0.0 0.0 0.0
0.0 0.0 0.0 0.0 0.0 0.0 0.0 0.0
0.0 0.0 0.0 0.0 0.0 0.0 0.0 0.0
0.0 0.0 0.0 0.0 0.0 0.0 0.0 0.0
0.0 0.0 0.0 0.0 0.0 0.0 0.0 0.0
0.0 0.0 0.0 0.0 0.0 0.0 0.0 0.0
0.0 0.0 0.0 0.0 0.0 0.0 0.0 0.0
0.0 0.0 0.0 0.0 0.0 0.0 0.0 0.0
0.0 0.0 0.0 0.0 0.0 0.0 0.0 0.0
0.0 0.0 0.0 0.0 0.0 0.0 0.0 0.0
0.0 0.0 0.0 0.0 0.0 0.0 0.0 0.0
0.0 0.0 0.0 0.0 0.0 0.0 0.0 0.0
0.0 0.0 0.0 0.0 0.0 0.0 0.0 0.0
0.0 0.0 0.0 0.0 0.0 0.0 0.0 0.0
0.0 0.0 0.0 0.0 0.0 0.0 0.0 0.0
0.0 0.0 0.0 0.0 0.0 0.0 0.0 0.0
0.0 0.0 0.0 0.0 0.0 0.0 0.0 0.0
0.0 0.0 0.0 0.0 0.0 0.0 0.0 0.0
0.0 0.0 0.0 0.0 0.0 0.0 0.0 0.0
0.0 0.0 0.0 0.0 0.0 0.0 0.0 0.0
0.0 0.0 0.0 0.0 0.0 0.0 0.0 0.0

bn1.running_mean f4 [256]
00000000: 0000 0000 0000 0000 0000 0000 0000 0000
00000010: 0000 0000 0000 0000 0000 0000 0000 0000
00000020: 0000 0000 0000 0000 0000 0000 0000 0000
00000030: 0000 0000 0000 0000 0000 0000 0000 0000
00000040: 0000 0000 0000 0000 0000 0000 0000 0000
00000050: 0000 0000 0000 0000 0000 0000 0000 0000
00000060: 0000 0000 0000 0000 0000 0000 0000 0000
00000070: 0000 0000 0000 0000 0000 0000 0000 0000
00000080: 0000 0000 0000 0000 0000 0000 0000 0000
00000090: 0000 0000 0000 0000 0000 0000 0000 0000
000000a0: 0000 0000 0000 0000 0000 0000 0000 0000
000000b0: 0000 0000 0000 0000 0000 0000 0000 0000
000000c0: 0000 0000 0000 0000 0000 0000 0000 0000
000000d0: 0000 0000 0000 0000 0000 0000 0000 0000
000000e0: 0000 0000 0000 0000 0000 0000 0000 0000
000000f0: 0000 0000 0000 0000 0000 0000 0000 0000
00000100: 0000 0000 0000 0000 0000 0000 0000 0000
00000110: 0000 0000 0000 0000 0000 0000 0000 0000
00000120: 0000 0000 0000 0000 0000 0000 0000 0000
00000130: 0000 0000 0000 0000 0000 0000 0000 0000
00000140: 0000 0000 0000 0000 0000 0000 0000 0000
00000150: 0000 0000 0000 0000 0000 0000 0000 0000
00000160: 0000 0000 0000 0000 0000 0000 0000 0000
00000170: 0000 0000 0000 0000 0000 0000 0000 0000
00000180: 0000 0000 0000 0000 0000 0000 0000 0000
00000190: 0000 0000 0000 0000 0000 0000 0000 0000
000001a0: 0000 0000 0000 0000 0000 0000 0000 0000
000001b0: 0000 0000 0000 0000 0000 0000 0000 0000
000001c0: 0000 0000 0000 0000 0000 0000 0000 0000
000001d0: 0000 0000 0000 0000 0000 0000 0000 0000
000001e0: 0000 0000 0000 0000 0000 0000 0000 0000
000001f0: 0000 0000 0000 0000 0000 0000 0000 0000
00000200: 0000 0000 0000 0000 0000 0000 0000 0000
00000210: 0000 0000 0000 0000 0000 0000 0000 0000
00000220: 0000 0000 0000 0000 0000 0000 0000 0000
00000230: 0000 0000 0000 0000 0000 0000 0000 0000
00000240: 0000 0000 0000 0000 0000 0000 0000 0000
00000250: 0000 0000 0000 0000 0000 0000 0000 0000
00000260: 0000 0000 0000 0000 0000 0000 0000 0000
00000270: 0000 0000 0000 0000 0000 0000 0000 0000
00000280: 0000 0000 0000 0000 0000 0000 0000 0000
00000290: 0000 0000 0000 0000 0000 0000 0000 0000
000002a0: 0000 0000 0000 0000 0000 0000 0000 0000
000002b0: 0000 0000 0000 0000 0000 0000 0000 0000
000002c0: 0000 0000 0000 0000 0000 0000 0000 0000
000002d0: 0000 0000 0000 0000 0000 0000 0000 0000
000002e0: 0000 0000 0000 0000 0000 0000 0000 0000
000002f0: 0000 0000 0000 0000 0000 0000 0000 0000
00000300: 0000 0000 0000 0000 0000 0000 0000 0000
00000310: 0000 0000 0000 0000 0000 0000 0000 0000
00000320: 0000 0000 0000 0000 0000 0000 0000 0000
00000330: 0000 0000 0000 0000 0000 0000 0000 0000
00000340: 0000 0000 0000 0000 0000 0000 0000 0000
00000350: 0000 0000 0000 0000 0000 0000 0000 0000
00000360: 0000 0000 0000 0000 0000 0000 0000 0000
00000370: 0000 0000 0000 0000 0000 0000 0000 0000
00000380: 0000 0000 0000 0000 0000 0000 0000 0000
00000390: 0000 0000 0000 0000 0000 0000 0000 0000
000003a0: 0000 0000 0000 0000 0000 0000 0000 0000
000003b0: 0000 0000 0000 0000 0000 0000 0000 0000
000003c0: 0000 0000 0000 0000 0000 0000 0000 0000
000003d0: 0000 0000 0000 0000 0000 0000 0000 0000
000003e0: 0000 0000 0000 0000 0000 0000 0000 0000
000003f0: 0000 0000 0000 0000 0000 0000 0000 0000
0.0 0.0 0.0 0.0 0.0 0.0 0.0 0.0
0.0 0.0 0.0 0.0 0.0 0.0 0.0 0.0
0.0 0.0 0.0 0.0 0.0 0.0 0.0 0.0
0.0 0.0 0.0 0.0 0.0 0.0 0.0 0.0
0.0 0.0 0.0 0.0 0.0 0.0 0.0 0.0
0.0 0.0 0.0 0.0 0.0 0.0 0.0 0.0
0.0 0.0 0.0 0.0 0.0 0.0 0.0 0.0
0.0 0.0 0.0 0.0 0.0 0.0 0.0 0.0
0.0 0.0 0.0 0.0 0.0 0.0 0.0 0.0
0.0 0.0 0.0 0.0 0.0 0.0 0.0 0.0
0.0 0.0 0.0 0.0 0.0 0.0 0.0 0.0
0.0 0.0 0.0 0.0 0.0 0.0 0.0 0.0
0.0 0.0 0.0 0.0 0.0 0.0 0.0 0.0
0.0 0.0 0.0 0.0 0.0 0.0 0.0 0.0
0.0 0.0 0.0 0.0 0.0 0.0 0.0 0.0
0.0 0.0 0.0 0.0 0.0 0.0 0.0 0.0
0.0 0.0 0.0 0.0 0.0 0.0 0.0 0.0
0.0 0.0 0.0 0.0 0.0 0.0 0.0 0.0
0.0 0.0 0.0 0.0 0.0 0.0 0.0 0.0
0.0 0.0 0.0 0.0 0.0 0.0 0.0 0.0
0.0 0.0 0.0 0.0 0.0 0.0 0.0 0.0
0.0 0.0 0.0 0.0 0.0 0.0 0.0 0.0
0.0 0.0 0.0 0.0 0.0 0.0 0.0 0.0
0.0 0.0 0.0 0.0 0.0 0.0 0.0 0.0
0.0 0.0 0.0 0.0 0.0 0.0 0.0 0.0
0.0 0.0 0.0 0.0 0.0 0.0 0.0 0.0
0.0 0.0 0.0 0.0 0.0 0.0 0.0 0.0
0.0 0.0 0.0 0.0 0.0 0.0 0.0 0.0
0.0 0.0 0.0 0.0 0.0 0.0 0.0 0.0
0.0 0.0 0.0 0.0 0.0 0.0 0.0 0.0
0.0 0.0 0.0 0.0 0.0 0.0 0.0 0.0
0.0 0.0 0.0 0.0 0.0 0.0 0.0 0.0

bn1.running_var f4 [256]
00000000: 0000 803f 0000 803f 0000 803f 0000 803f
00000010: 0000 803f 0000 803f 0000 803f 0000 803f
00000020: 0000 803f 0000 803f 0000 803f 0000 803f
00000030: 0000 803f 0000 803f 0000 803f 0000 803f
00000040: 0000 803f 0000 803f 0000 803f 0000 803f
00000050: 0000 803f 0000 803f 0000 803f 0000 803f
00000060: 0000 803f 0000 803f 0000 803f 0000 803f
00000070: 0000 803f 0000 803f 0000 803f 0000 803f
00000080: 0000 803f 0000 803f 0000 803f 0000 803f
00000090: 0000 803f 0000 803f 0000 803f 0000 803f
000000a0: 0000 803f 0000 803f 0000 803f 0000 803f
000000b0: 0000 803f 0000 803f 0000 803f 0000 803f
000000c0: 0000 803f 0000 803f 0000 803f 0000 803f
000000d0: 0000 803f 0000 803f 0000 803f 0000 803f
000000e0: 0000 803f 0000 803f 0000 803f 0000 803f
000000f0: 0000 803f 0000 803f 0000 803f 0000 803f
00000100: 0000 803f 0000 803f 0000 803f 0000 803f
00000110: 0000 803f 0000 803f 0000 803f 0000 803f
00000120: 0000 803f 0000 803f 0000 803f 0000 803f
00000130: 0000 803f 0000 803f 0000 803f 0000 803f
00000140: 0000 803f 0000 803f 0000 803f 0000 803f
00000150: 0000 803f 0000 803f 0000 803f 0000 803f
00000160: 0000 803f 0000 803f 0000 803f 0000 803f
00000170: 0000 803f 0000 803f 0000 803f 0000 803f
00000180: 0000 803f 0000 803f 0000 803f 0000 803f
00000190: 0000 803f 0000 803f 0000 803f 0000 803f
000001a0: 0000 803f 0000 803f 0000 803f 0000 803f
000001b0: 0000 803f 0000 803f 0000 803f 0000 803f
000001c0: 0000 803f 0000 803f 0000 803f 0000 803f
000001d0: 0000 803f 0000 803f 0000 803f 0000 803f
000001e0: 0000 803f 0000 803f 0000 803f 0000 803f
000001f0: 0000 803f 0000 803f 0000 803f 0000 803f
00000200: 0000 803f 0000 803f 0000 803f 0000 803f
00000210: 0000 803f 0000 803f 0000 803f 0000 803f
00000220: 0000 803f 0000 803f 0000 803f 0000 803f
00000230: 0000 803f 0000 803f 0000 803f 0000 803f
00000240: 0000 803f 0000 803f 0000 803f 0000 803f
00000250: 0000 803f 0000 803f 0000 803f 0000 803f
00000260: 0000 803f 0000 803f 0000 803f 0000 803f
00000270: 0000 803f 0000 803f 0000 803f 0000 803f
00000280: 0000 803f 0000 803f 0000 803f 0000 803f
00000290: 0000 803f 0000 803f 0000 803f 0000 803f
000002a0: 0000 803f 0000 803f 0000 803f 0000 803f
000002b0: 0000 803f 0000 803f 0000 803f 0000 803f
000002c0: 0000 803f 0000 803f 0000 803f 0000 803f
000002d0: 0000 803f 0000 803f 0000 803f 0000 803f
000002e0: 0000 803f 0000 803f 0000 803f 0000 803f
000002f0: 0000 803f 0000 803f 0000 803f 0000 803f
00000300: 0000 803f 0000 803f 0000 803f 0000 803f
00000310: 0000 803f 0000 803f 0000 803f 0000 803f
00000320: 0000 803f 0000 803f 0000 803f 0000 803f
00000330: 0000 803f 0000 803f 0000 803f 0000 803f
00000340: 0000 803f 0000 803f 0000 803f 0000 803f
00000350: 0000 803f 0000 803f 0000 803f 0000 803f
00000360: 0000 803f 0000 803f 0000 803f 0000 803f
00000370: 0000 803f 0000 803f 0000 803f 0000 803f
00000380: 0000 803f 0000 803f 0000 803f 0000 803f
00000390: 0000 803f 0000 803f 0000 803f 0000 803f
000003a0: 0000 803f 0000 803f 0000 803f 0000 803f
000003b0: 0000 803f 0000 803f 0000 803f 0000 803f
000003c0: 0000 803f 0000 803f 0000 803f 0000 803f
000003d0: 0000 803f 0000 803f 0000 803f 0000 803f
000003e0: 0000 803f 0000 803f 0000 803f 0000 803f
000003f0: 0000 803f 0000 803f 0000 803f 0000 803f
1.0 1.0 1.0 1.0 1.0 1.0 1.0 1.0
1.0 1.0 1.0 1.0 1.0 1.0 1.0 1.0
1.0 1.0 1.0 1.0 1.0 1.0 1.0 1.0
1.0 1.0 1.0 1.0 1.0 1.0 1.0 1.0
1.0 1.0 1.0 1.0 1.0 1.0 1.0 1.0
1.0 1.0 1.0 1.0 1.0 1.0 1.0 1.0
1.0 1.0 1.0 1.0 1.0 1.0 1.0 1.0
1.0 1.0 1.0 1.0 1.0 1.0 1.0 1.0
1.0 1.0 1.0 1.0 1.0 1.0 1.0 1.0
1.0 1.0 1.0 1.0 1.0 1.0 1.0 1.0
1.0 1.0 1.0 1.0 1.0 1.0 1.0 1.0
1.0 1.0 1.0 1.0 1.0 1.0 1.0 1.0
1.0 1.0 1.0 1.0 1.0 1.0 1.0 1.0
1.0 1.0 1.0 1.0 1.0 1.0 1.0 1.0
1.0 1.0 1.0 1.0 1.0 1.0 1.0 1.0
1.0 1.0 1.0 1.0 1.0 1.0 1.0 1.0
1.0 1.0 1.0 1.0 1.0 1.0 1.0 1.0
1.0 1.0 1.0 1.0 1.0 1.0 1.0 1.0
1.0 1.0 1.0 1.0 1.0 1.0 1.0 1.0
1.0 1.0 1.0 1.0 1.0 1.0 1.0 1.0
1.0 1.0 1.0 1.0 1.0 1.0 1.0 1.0
1.0 1.0 1.0 1.0 1.0 1.0 1.0 1.0
1.0 1.0 1.0 1.0 1.0 1.0 1.0 1.0
1.0 1.0 1.0 1.0 1.0 1.0 1.0 1.0
1.0 1.0 1.0 1.0 1.0 1.0 1.0 1.0
1.0 1.0 1.0 1.0 1.0 1.0 1.0 1.0
1.0 1.0 1.0 1.0 1.0 1.0 1.0 1.0
1.0 1.0 1.0 1.0 1.0 1.0 1.0 1.0
1.0 1.0 1.0 1.0 1.0 1.0 1.0 1.0
1.0 1.0 1.0 1.0 1.0 1.0 1.0 1.0
1.0 1.0 1.0 1.0 1.0 1.0 1.0 1.0
1.0 1.0 1.0 1.0 1.0 1.0 1.0 1.0

fc2.weight f4 [128, 260]
00000000: 36e6 9f3d 4e51 23bd 29fb 6dbd f8b2 b73b
00000010: c37e 8bbd 826d 72bd 77f4 1dbe 5082 78bc
00000020: 8976 943d b8ca dfbb de58 8bbd 9998 5c3c
00000030: bbd2 17bc 4e90 263c 05fa 6dbd 9b10 00bd
00000040: 13d8 ae3d 5d23 33be e834 023d d148 c9bb
00000050: f173 f13d ccd2 d2bc 0d37 5e3d 19cf e8bd
00000060: 06a7 eebc af1d a13c a56c c83b 4d1a d9bc
00000070: 3406 c8bc a867 72bd 7d10 cdbd 5fc9 d8bc
00000080: a43b 603c 62ad 873c 93d6 0ebc 3e8b 2d3c
00000090: a5cb 8b3d 91dc 60bd dd7f fd3b 3724 94bd
000000a0: 301e 1a3a 62e3 113d 0c78 913b 75ff 303d
000000b0: 49ba 2dbe 405b 4cbe 30a6 37bd 0d3a bb3d
000000c0: 1ccb 8ebc c978 cbbc d67f b63d d9d7 923d
000000d0: 27e1 963b 80fc 073d 81a3 aa3d 05d1 7e3d
000000e0: f7ef 07be 9c5d 71bd a6bb 76bc 7784 433c
000000f0: 9e13 97bc a235 113e 060c e5bd d536 d7bd
00000100: c9bd 9b3c 9dfa 8dbd dc3f ccbc 64c4 17bd
00000110: 1bf9 abbc 635f c9bd 0ee5 26bd 3ac4 29bd
00000120: f5a8 493d 64e0 4b3d a2c4 b53d 8064 38bd
00000130: f5db b5bd 878b 58be e8f4 213c 45a5 1cbd
00000140: 1575 2b3d b9b9 22be 380e bdbc 42b6 b93d
00000150: 222a b13d 7540 c73d 6749 23bd 22c5 9b3d
00000160: ef7c b8bc 796b 133c 4f5c 99bc b373 83bd
00000170: 9d1b 6b3d e05a a0bd bef4 14be d010 1bbe
00000180: 212d 4f3d f88e 723d fddf 11be eeb9 3fbd
00000190: 993c 28bd a7ce ffbc 08d0 6a3d b334 013e
000001a0: 4be0 c83c 854f 3abc b286 9f3c 84c8 31bd
000001b0: 875f 40be a790 01bd 3e37 94bd df5e 2dbd
000001c0: 18e1 13be 1f54 fb3c 0f0f 023d ac4d 10bd
000001d0: dc03 13be ba59 b1bd b733 0e3c 526a bfbd
000001e0: 34ef 163d 69b0 413d 7c4d 87bd 2bfc 32bd
000001f0: 2177 94bd 6df6 abbd af44 a33c 5cae 8e3d
00000200: 32fa bdbb 8f93 433c c297 a83d 62bd 90bd
00000210: b484 87bd 7f24 02bd 40f5 013d 5781 c6bd
00000220: 174b f6bd 7849 69bd 376f 633c ef47 a6bd
00000230: 9795 54ba 4abe 56bc 2e9c 25bd ecf6 a5bd
00000240: 1690 97bd cc91 adbc 2d29 ecbb 4e6e 053e
00000250: 212e 5bbd 48bb 6ebe ec38 033b 0376 443d
00000260: b769 ffbc 1d5c 0ebc c072 16bd ccb6 e93a
00000270: 5524 8b3d b3bc 9a3d 5696 5b3d 49b6 8dbd
00000280: 6edf 8d3c 3264 423d 7662 803d 3cc3 c7bb
00000290: 6168 853d 72b1 f4bc 8c3f 62be 8472 003e
000002a0: 082a 14bd 9194 7abc 085f 933d 6e18 113d
000002b0: 6eb3 ee3d 9128 073d c11e d03c 1d7e 0ebe
000002c0: 0772 37bd 0e57 1bbe 9ea2 d8bc 09bf 363c
000002d0: 2548 bcbd 10bb 0d3d 8f26 13bd 647c 9ebc
000002e0: 9fba 89bc a0f2 d6bd b321 cf3d 97dd 6cbe
000002f0: 3d65 f0bc 89d9 5dbc 693f e73c 7e96 b03d
00000300: e332 8abd 2f9b 41be 0c56 a8bc 9a0e dcbc
00000310: 0616 0fbd d64c 7ebc be67 89bc 4610 8e3d
00000320: cd05 9abb 5c71 74be 9eaa ea3d 7c37 94bd
00000330: 3a41 f6bc d8e5 9cbb 5e3a 743d c16d 833d
00000340: 946d c3bc 3eae d63c e7c0 e2ba f1f4 44bd
00000350: 483d 703d c2ef d0bc ae41 49bd 0e3e 36be
00000360: 2e03 81be ccc9 ec3c f58c 65bd 713d 443d
00000370: 7fe3 6aba bc2c 68bd 11d6 06be 29e8 343d
00000380: 7b01 463c 830a 3cbd 6318 ae3d 6bbc 6b3d
00000390: 0606 d8bb 3515 053b d9c6 8a3d 376d 14be
000003a0: 140b 783d 275d 8dbd f278 6d3c 53fe 2ebd
000003b0: 26f3 e1bd e6af 02bd 53e9 adbd 036e 7fbd
000003c0: a500 e0bd 1452 abbd 41cb 2bbe 4ad9 f93c
000003d0: cea0 00be 6939 d53d 8725 34bd ad38 d4bc
000003e0: 0def b7bd be34 d9bc 60b9 79bb 581a 03bd
000003f0: 1517 c13d 6a45 753d 9c6d 7fbd 797b 2dbd
0.07807581 -0.03987246 -0.058100853 0.0056060515 -0.06811287 -0.059186466 -0.15425287 -0.015167788
0.07249171 -0.006829586 -0.068040594 0.0134641165 -0.009266551 0.010166241 -0.058099765 -0.031265836
0.08537307 -0.17493959 0.031788737 -0.0061427136 0.11789692 -0.025735281 0.05425172 -0.11367626
-0.029132377 0.019667475 0.006116467 -0.026501799 -0.02441702 -0.059180886 -0.100129105 -0.026463209
0.013686094 0.016562168 -0.008718151 0.01059228 0.068259515 -0.05489785 0.0077361898 -0.0723347
0.0005879132 0.03561724 0.0044393595 0.043212373 -0.16965593 -0.19956684 -0.044836223 0.09141932
-0.017430834 -0.024837868 0.089111015 0.07170076 0.004604477 0.033199787 0.08331967 0.062211055
-0.13275133 -0.058927163 -0.015059387 0.011933438 -0.018441971 0.14180616 -0.11183934 -0.10508505
0.019011395 -0.06932566 -0.024932794 -0.037052527 -0.020992806 -0.09832647 -0.040745787 -0.0414469
0.049233396 0.049774542 0.08875395 -0.04501772 -0.08879844 -0.21146975 0.00988505 -0.03824355
0.041859705 -0.1589116 -0.02307807 0.09067966 0.08650614 0.09729091 -0.039864924 0.076059595
-0.02252051 0.008997791 -0.018720774 -0.06418552 0.05739938 -0.07829833 -0.14546487 -0.15143132
0.050580148 0.059218377 -0.14245601 -0.046808176 -0.041073415 -0.03122647 0.0573273 0.1261776
0.024521014 -0.011371498 0.019473407 -0.043404117 -0.18786441 -0.03163209 -0.07237099 -0.042326804
-0.14441335 0.03067976 0.031752642 -0.035230324 -0.14356941 -0.08659692 0.008679322 -0.09346451
0.036849216 0.04728738 -0.06606576 -0.043697517 -0.072492845 -0.08396611 0.019930212 0.0696685
-0.005797648 0.011937036 0.082320705 -0.07067372 -0.06617108 -0.031773087 0.03172803 -0.09692638
-0.12026041 -0.05695483 0.013881496 -0.08119189 -0.0008109449 -0.013106892 -0.040432148 -0.08103737
-0.07400529 -0.021187685 -0.007207057 0.13030359 -0.05351079 -0.2331363 0.0020022942 0.047964107
-0.031178338 -0.008688954 -0.036730528 0.0017830967 0.06794039 0.07555523 0.05361017 -0.06919534
0.017318454 0.047458835 0.0626878 -0.006096272 0.06514049 -0.029869769 -0.22094554 0.12543684
-0.036172897 -0.01529421 0.0719586 0.03542369 0.11655317 0.03299767 0.02540529 -0.13915296
-0.04478648 -0.15169927 -0.02644473 0.011153945 -0.09193448 0.034602225 -0.035925444 -0.019346423
-0.01681262 -0.10495496 0.101138495 -0.23131405 -0.02934515 -0.013540634 0.028228479 0.08622454
-0.06747987 -0.18906854 -0.020548843 -0.026862431 -0.034933113 -0.015521249 -0.016773101 0.06936698
-0.0047003985 -0.23871368 0.11458324 -0.07237145 -0.0300604 -0.0047881417 0.059625976 0.06417418
-0.023855962 0.026206132 -0.0017299921 -0.048085157 0.058652192 -0.02550495 -0.049134903 -0.1779711
-0.25197738 0.028904818 -0.05604263 0.047910158 -0.0008960291 -0.056683287 -0.13167597 0.044166718
0.012085314 -0.045908462 0.08500745 0.057552736 -0.006592515 0.002030683 0.067762084 -0.14494787
0.06055744 -0.06902533 0.014494168 -0.04272301 -0.11032705 -0.03190603 -0.08491769 -0.062360775
-0.10937623 -0.083652645 -0.16776754 0.03049912 -0.12561342 0.10411341 -0.0439811 -0.025905931
-0.08981142 -0.026514407 -0.0038104877 -0.032007545 0.09428231 0.05988065 -0.06236039 -0.04235408

fc2.bias f4 [128]
00000000: 74db 8dbd 8da9 0c3e a378 783d 237b ed3c
00000010: 174d 253d c09d 2e3e 4c5d a4bd dc49 58bc
00000020: 73f2 47bd cccf 3cbd 264f ed3d 71c7 833d
00000030: 152f e83c c6b7 9dbd 5b76 0339 36b5 1b3d
00000040: f7eb 32bd afec d43d eb28 9b3d 5c80 88bd
00000050: 3e78 f43c b790 683d f4f0 be3d 0c26 2dbd
00000060: c136 43bd a270 51bd 730e c93d ccee 683d
00000070: 2c9f 473c 909d 95bd a273 04be 7298 1b3d
00000080: 7f3f 073e 81ea 88bd e471 95bd 9da3 a1bd
00000090: 2b33 ca3d b53b 653d 9958 293e c010 4f3c
000000a0: 99c1 e63d 8e1c febd fde3 1d3e b841 88bd
000000b0: a7c6 1f3e 0f4b d63d 98d1 893d da38 d23d
000000c0: c1bd babb f7bf 92ba 3537 883c 8548 f13d
000000d0: 854e 16bc bafe c7bd 7300 61bd c539 ac3c
000000e0: 8947 293d 7ec7 bd3d fe89 83bd bdda 8f3c
000000f0: c6d7 4b3d 4860 a43b dea3 2d3e d558 bb3d
00000100: 11e2 e33d 2d12 67bd ad22 c63d decf fb3d
00000110: 2b5f febc 9584 63bd edcf 803d 2048 233d
00000120: 4aba 7ebc 15df d8bd cf79 a93c 9304 fd3c
00000130: 378a 8c3d fe4f 8c3d 33c1 b4bd 8ce1 49ba
00000140: f297 5e3d b9f8 873c ba1e 7b3d 3915 04bb
00000150: b334 29bd 90c2 b13d d5c0 adbd 94cd 76bd
00000160: a8eb 5c3c 67b8 92bd 3f86 0a3d d2d8 29bd
00000170: c20b 063d fd07 e93d aaed 00bd fc85 eabd
00000180: 344d 17bd 6266 d13d 03d3 b0bc b75f 783c
00000190: ccc4 9d3d 2cef 2fbd e805 01bd a4b3 a43d
000001a0: 51c8 6dbd a051 cf3c 273a fa3b 61ac 39bd
000001b0: 7080 4c3d a84b 433d a5d0 b53c 1896 19bd
000001c0: 431f 183d 393e 89bd ebea 95bc 4fe4 82bd
000001d0: 72e5 933d be72 3fbc 12e9 17bc 878f 9ebc
000001e0: e1da fa39 628b d03c e8a8 753d ceae 783d
000001f0: 46f6 323b d35a 4ebb 0193 34bc ee64 df3a
-0.06926623 0.13736553 0.060661923 0.02898938 0.04035672 0.17052364 -0.080256075 -0.013201203
-0.048815202 -0.046096608 0.11587362 0.06434525 0.028342763 -0.077010676 0.00012537224 0.038014613
-0.043682065 0.10396706 0.07576164 -0.066651076 0.029842492 0.056778636 0.09323302 -0.042272612
-0.04765964 -0.051132806 0.09817209 0.05686836 0.012183946 -0.07305443 -0.12934735 0.03798718
0.13207816 -0.06685353 -0.072971135 -0.07892535 0.09873041 0.055965144 0.16537704 0.012638271
0.112673946 -0.1240779 0.15419002 -0.0665316 0.15603124 0.10463535 0.0672943 0.1026475
-0.00569889 -0.0011196126 0.016627887 0.1178141 -0.009173994 -0.09765382 -0.05493207 0.02102364
0.041327987 0.09266566 -0.06422804 0.017560357 0.049766324 0.0050163604 0.16957042 0.09147803
0.11127103 -0.05641382 0.09674583 0.12295507 -0.031051239 -0.055546362 0.06289659 0.039863706
-0.015547344 -0.105894245 0.020687966 0.03088597 0.068623 0.06851195 -0.08825912 -0.00077011506
0.054344125 0.016598092 0.0613086 -0.0020154251 -0.041310024 0.08679688 -0.084840454 -0.06025465
0.013483919 -0.07164078 0.033819433 -0.04146654 0.032726057 0.11378477 -0.031476654 -0.11451337
-0.03693886 0.10224606 -0.021584993 0.015159539 0.07703552 -0.0429527 -0.031499773 0.08042076
-0.058052365 0.025307477 0.007636327 -0.04533041 0.049927175 0.047679573 0.022194216 -0.037496656
0.03713919 -0.06701321 -0.018300494 -0.06391203 0.072214976 -0.0116850715 -0.009271877 -0.019355549
0.00047846793 0.025457088 0.059975535 0.06071358 0.0027307435 -0.003148724 -0.011021377 0.0017043629

bn2.weight f4 [128]
00000000: 4217 d53e a4af 9a3e 1c79 643f 600e d33e
00000010: ebda 7e3f 683e 4e3f 6a3c e83e 5273 183f
00000020: 308a ec3d 8ca8 2b3e 696f 493f 8971 7f3f
00000030: 1889 563f 10bc ee3d 1bd4 7b3f e006 c53e
00000040: be14 713f 421e 093f 4f10 263f 0425 f53e
00000050: 962c a93e d878 8b3d 607c de3c dee0 b63e
00000060: 6e17 483f 0fd1 343f 2490 3a3f 5749 5a3f
00000070: 8d57 2f3f 32ad 493f 4955 4a3f 3bf8 203f
00000080: 7cee 3c3f 4cfa 3f3e 56b6 243f d89b 4e3e
00000090: 6528 223f a4ed 333f 78ce f33e 3c1a 6a3e
000000a0: 489d 8b3d bb18 193f 5eb8 2a3f 6810 b23d
000000b0: d41f eb3e 443e 333f 8090 553c 2ca2 cc3e
000000c0: d6ed 203f 0096 af3a 7cd3 563f 568e 303f
000000d0: e852 ae3d 484b bd3e 62dc 003f c023 fe3e
000000e0: 602a 243f 3057 d33e 705e 923e 3407 d93e
000000f0: 7051 2f3d d008 e93e ecaa dd3e f46e 313f
00000100: 9096 f33d 43ab 273f d857 2e3f 520d 623f
00000110: ea1c c13e 1930 133f 1f27 143f b815 143f
00000120: a408 2a3e 30e4 043e c858 483e 3eee d13e
00000130: a0ec 0f3f 2fb8 473f 4068 e13d 877b 373f
00000140: 4803 da3d ea3a f93e 9a46 343f 4e9a 7f3f
00000150: bcd1 f23e 2890 093f 5c2d f63e 8a36 5b3f
00000160: 4b73 1b3f 7e44 523f c8a7 713f 5edf 873e
00000170: 9115 043f 21fe 4c3f 233c 1c3f 7eca 603f
00000180: 4007 cc3e cc7b 443e b1f3 413f 8a67 183f
00000190: 70fa f13d 40e8 093d 76fa 023f c097 333f
000001a0: 946c 173e 88a4 353e 6aa8 ff3e 5069 2b3e
000001b0: 28de d33d f8f9 193e 8fd9 733f 0d4e 7c3f
000001c0: c6d2 3c3f 6c76 783f bcb7 7c3e 2e21 6c3f
000001d0: 2087 4b3d f845 a33e 0c73 173e 809e 503d
000001e0: ead1 d83e b002 7c3e 3338 533f 0d8b 293f
000001f0: 1a06 9c3e 0ed3 943e dad9 593f b216 4e3f
0.41619307 0.30212128 0.892473 0.41221905 0.9955279 0.80563974 0.45358592 0.59550965
0.11549795 0.16763514 0.78685623 0.99782616 0.8380294 0.11656964 0.9837052 0.38481808
0.94172275 0.53561795 0.64868635 0.47879803 0.3304183 0.068101585 0.027158916 0.35718435
0.7816075 0.706315 0.7287619 0.8526816 0.68492967 0.787799 0.79036385 0.6287877
0.738014 0.18747824 0.6434072 0.20176637 0.6334289 0.70284486 0.4761846 0.2286157
0.068171084 0.5980336 0.6668757 0.086945355 0.4592272 0.70016885 0.01303494 0.39967477
0.6286291 0.0013396144 0.8391645 0.6896719 0.08511907 0.36971498 0.5033628 0.4963665
0.6412716 0.41277456 0.28587675 0.42388308 0.042802274 0.45514536 0.43294466 0.69309926
0.11893952 0.654957 0.6810279 0.88301575 0.37717372 0.57495266 0.57872194 0.5784564
0.16604859 0.12977672 0.19565117 0.41002077 0.56220436 0.78015417 0.11006212 0.7167286
0.10645157 0.4867776 0.7042023 0.99844825 0.4742564 0.5373559 0.4808148 0.85630095
0.607228 0.8213576 0.9439664 0.26537603 0.5159541 0.8007527 0.6102926 0.8780898
0.3984928 0.1918785 0.7576247 0.5953299 0.11815345 0.033668756 0.51163423 0.7015343
0.14787513 0.17738545 0.49933177 0.16739392 0.10345107 0.15036762 0.95253843 0.98556596
0.73759115 0.970557 0.24679464 0.9223813 0.049689412 0.3188932 0.1478998 0.050932407
0.42347652 0.246104 0.8250763 0.662278 0.30473405 0.29067272 0.8509804 0.8050338

bn2.bias f4 [128]
00000000: 0000 0000 0000 0000 0000 0000 0000 0000
00000010: 0000 0000 0000 0000 0000 0000 0000 0000
00000020: 0000 0000 0000 0000 0000 0000 0000 0000
00000030: 0000 0000 0000 0000 0000 0000 0000 0000
00000040: 0000 0000 0000 0000 0000 0000 0000 0000
00000050: 0000 0000 0000 0000 0000 0000 0000 0000
00000060: 0000 0000 0000 0000 0000 0000 0000 0000
00000070: 0000 0000 0000 0000 0000 0000 0000 0000
00000080: 0000 0000 0000 0000 0000 0000 0000 0000
00000090: 0000 0000 0000 0000 0000 0000 0000 0000
000000a0: 0000 0000 0000 0000 0000 0000 0000 0000
000000b0: 0000 0000 0000 0000 0000 0000 0000 0000
000000c0: 0000 0000 0000 0000 0000 0000 0000 0000
000000d0: 0000 0000 0000 0000 0000 0000 0000 0000
000000e0: 0000 0000 0000 0000 0000 0000 0000 0000
000000f0: 0000 0000 0000 0000 0000 0000 0000 0000
00000100: 0000 0000 0000 0000 0000 0000 0000 0000
00000110: 0000 0000 0000 0000 0000 0000 0000 0000
00000120: 0000 0000 0000 0000 0000 0000 0000 0000
00000130: 0000 0000 0000 0000 0000 0000 0000 0000
00000140: 0000 0000 0000 0000 0000 0000 0000 0000
00000150: 0000 0000 0000 0000 0000 0000 0000 0000
00000160: 0000 0000 0000 0000 0000 0000 0000 0000
00000170: 0000 0000 0000 0000 0000 0000 0000 0000
00000180: 0000 0000 0000 0000 0000 0000 0000 0000
00000190: 0000 0000 0000 0000 0000 0000 0000 0000
000001a0: 0000 0000 0000 0000 0000 0000 0000 0000
000001b0: 0000 0000 0000 0000 0000 0000 0000 0000
000001c0: 0000 0000 0000 0000 0000 0000 0000 0000
000001d0: 0000 0000 0000 0000 0000 0000 0000 0000
000001e0: 0000 0000 0000 0000 0000 0000 0000 0000
000001f0: 0000 0000 0000 0000 0000 0000 0000 0000
0.0 0.0 0.0 0.0 0.0 0.0 0.0 0.0
0.0 0.0 0.0 0.0 0.0 0.0 0.0 0.0
0.0 0.0 0.0 0.0 0.0 0.0 0.0 0.0
0.0 0.0 0.0 0.0 0.0 0.0 0.0 0.0
0.0 0.0 0.0 0.0 0.0 0.0 0.0 0.0
0.0 0.0 0.0 0.0 0.0 0.0 0.0 0.0
0.0 0.0 0.0 0.0 0.0 0.0 0.0 0.0
0.0 0.0 0.0 0.0 0.0 0.0 0.0 0.0
0.0 0.0 0.0 0.0 0.0 0.0 0.0 0.0
0.0 0.0 0.0 0.0 0.0 0.0 0.0 0.0
0.0 0.0 0.0 0.0 0.0 0.0 0.0 0.0
0.0 0.0 0.0 0.0 0.0 0.0 0.0 0.0
0.0 0.0 0.0 0.0 0.0 0.0 0.0 0.0
0.0 0.0 0.0 0.0 0.0 0.0 0.0 0.0
0.0 0.0 0.0 0.0 0.0 0.0 0.0 0.0
0.0 0.0 0.0 0.0 0.0 0.0 0.0 0.0

bn2.running_mean f4 [128]
00000000: 0000 0000 0000 0000 0000 0000 0000 0000
00000010: 0000 0000 0000 0000 0000 0000 0000 0000
00000020: 0000 0000 0000 0000 0000 0000 0000 0000
00000030: 0000 0000 0000 0000 0000 0000 0000 0000
00000040: 0000 0000 0000 0000 0000 0000 0000 0000
00000050: 0000 0000 0000 0000 0000 0000 0000 0000
00000060: 0000 0000 0000 0000 0000 0000 0000 0000
00000070: 0000 0000 0000 0000 0000 0000 0000 0000
00000080: 0000 0000 0000 0000 0000 0000 0000 0000
00000090: 0000 0000 0000 0000 0000 0000 0000 0000
000000a0: 0000 0000 0000 0000 0000 0000 0000 0000
000000b0: 0000 0000 0000 0000 0000 0000 0000 0000
000000c0: 0000 0000 0000 0000 0000 0000 0000 0000
000000d0: 0000 0000 0000 0000 0000 0000 0000 0000
000000e0: 0000 0000 0000 0000 0000 0000 0000 0000
000000f0: 0000 0000 0000 0000 0000 0000 0000 0000
00000100: 0000 0000 0000 0000 0000 0000 0000 0000
00000110: 0000 0000 0000 0000 0000 0000 0000 0000
00000120: 0000 0000 0000 0000 0000 0000 0000 0000
00000130: 0000 0000 0000 0000 0000 0000 0000 0000
00000140: 0000 0000 0000 0000 0000 0000 0000 0000
00000150: 0000 0000 0000 0000 0000 0000 0000 0000
00000160: 0000 0000 0000 0000 0000 0000 0000 0000
00000170: 0000 0000 0000 0000 0000 0000 0000 0000
00000180: 0000 0000 0000 0000 0000 0000 0000 0000
00000190: 0000 0000 0000 0000 0000 0000 0000 0000
000001a0: 0000 0000 0000 0000 0000 0000 0000 0000
000001b0: 0000 0000 0000 0000 0000 0000 0000 0000
000001c0: 0000 0000 0000 0000 0000 0000 0000 0000
000001d0: 0000 0000 0000 0000 0000 0000 0000 0000
000001e0: 0000 0000 0000 0000 0000 0000 0000 0000
000001f0: 0000 0000 0000 0000 0000 0000 0000 0000
0.0 0.0 0.0 0.0 0.0 0.0 0.0 0.0
0.0 0.0 0.0 0.0 0.0 0.0 0.0 0.0
0.0 0.0 0.0 0.0 0.0 0.0 0.0 0.0
0.0 0.0 0.0 0.0 0.0 0.0 0.0 0.0
0.0 0.0 0.0 0.0 0.0 0.0 0.0 0.0
0.0 0.0 0.0 0.0 0.0 0.0 0.0 0.0
0.0 0.0 0.0 0.0 0.0 0.0 0.0 0.0
0.0 0.0 0.0 0.0 0.0 0.0 0.0 0.0
0.0 0.0 0.0 0.0 0.0 0.0 0.0 0.0
0.0 0.0 0.0 0.0 0.0 0.0 0.0 0.0
0.0 0.0 0.0 0.0 0.0 0.0 0.0 0.0
0.0 0.0 0.0 0.0 0.0 0.0 0.0 0.0
0.0 0.0 0.0 0.0 0.0 0.0 0.0 0.0
0.0 0.0 0.0 0.0 0.0 0.0 0.0 0.0
0.0 0.0 0.0 0.0 0.0 0.0 0.0 0.0
0.0 0.0 0.0 0.0 0.0 0.0 0.0 0.0

bn2.running_var f4 [128]
00000000: 0000 803f 0000 803f 0000 803f 0000 803f
00000010: 0000 803f 0000 803f 0000 803f 0000 803f
00000020: 0000 803f 0000 803f 0000 803f 0000 803f
00000030: 0000 803f 0000 803f 0000 803f 0000 803f
00000040: 0000 803f 0000 803f 0000 803f 0000 803f
00000050: 0000 803f 0000 803f 0000 803f 0000 803f
00000060: 0000 803f 0000 803f 0000 803f 0000 803f
00000070: 0000 803f 0000 803f 0000 803f 0000 803f
00000080: 0000 803f 0000 803f 0000 803f 0000 803f
00000090: 0000 803f 0000 803f 0000 803f 0000 803f
000000a0: 0000 803f 0000 803f 0000 803f 0000 803f
000000b0: 0000 803f 0000 803f 0000 803f 0000 803f
000000c0: 0000 803f 0000 803f 0000 803f 0000 803f
000000d0: 0000 803f 0000 803f 0000 803f 0000 803f
000000e0: 0000 803f 0000 803f 0000 803f 0000 803f
000000f0: 0000 803f 0000 803f 0000 803f 0000 803f
00000100: 0000 803f 0000 803f 0000 803f 0000 803f
00000110: 0000 803f 0000 803f 0000 803f 0000 803f
00000120: 0000 803f 0000 803f 0000 803f 0000 803f
00000130: 0000 803f 0000 803f 0000 803f 0000 803f
00000140: 0000 803f 0000 803f 0000 803f 0000 803f
00000150: 0000 803f 0000 803f 0000 803f 0000 803f
00000160: 0000 803f 0000 803f 0000 803f 0000 803f
00000170: 0000 803f 0000 803f 0000 803f 0000 803f
00000180: 0000 803f 0000 803f 0000 803f 0000 803f
00000190: 0000 803f 0000 803f 0000 803f 0000 803f
000001a0: 0000 803f 0000 803f 0000 803f 0000 803f
000001b0: 0000 803f 0000 803f 0000 803f 0000 803f
000001c0: 0000 803f 0000 803f 0000 803f 0000 803f
000001d0: 0000 803f 0000 803f 0000 803f 0000 803f
000001e0: 0000 803f 0000 803f 0000 803f 0000 803f
000001f0: 0000 803f 0000 803f 0000 803f 0000 803f
1.0 1.0 1.0 1.0 1.0 1.0 1.0 1.0
1.0 1.0 1.0 1.0 1.0 1.0 1.0 1.0
1.0 1.0 1.0 1.0 1.0 1.0 1.0 1.0
1.0 1.0 1.0 1.0 1.0 1.0 1.0 1.0
1.0 1.0 1.0 1.0 1.0 1.0 1.0 1.0
1.0 1.0 1.0 1.0 1.0 1.0 1.0 1.0
1.0 1.0 1.0 1.0 1.0 1.0 1.0 1.0
1.0 1.0 1.0 1.0 1.0 1.0 1.0 1.0
1.0 1.0 1.0 1.0 1.0 1.0 1.0 1.0
1.0 1.0 1.0 1.0 1.0 1.0 1.0 1.0
1.0 1.0 1.0 1.0 1.0 1.0 1.0 1.0
1.0 1.0 1.0 1.0 1.0 1.0 1.0 1.0
1.0 1.0 1.0 1.0 1.0 1.0 1.0 1.0
1.0 1.0 1.0 1.0 1.0 1.0 1.0 1.0
1.0 1.0 1.0 1.0 1.0 1.0 1.0 1.0
1.0 1.0 1.0 1.0 1.0 1.0 1.0 1.0
