models/checkpoint_critic_single.pth (torch_old, 177034 bytes, 13 tensors)

fcs1.weight f4 [256, 33]
0	0xbd8bc006	-0.06823735
1	0x3d95fdc8	0.073237956
2	0x3d79ecc6	0.06101682
3	0xbd530d8e	-0.0515266
4	0x3cacec6b	0.021108827
5	0xb9ad1377	-0.00033011634
6	0xbcb298cf	-0.02180138
7	0xbd17a824	-0.037025586
8	0x39515208	0.00019962352
9	0x3bf5ce6b	0.0075014136
10	0x3ce190cf	0.02753487
11	0x3bd3bf09	0.006461982
12	0xbcd60cd2	-0.02612916
13	0x3e420ae5	0.18949468
14	0xbda1d339	-0.07901616
15	0xbe1597d2	-0.14608696
16	0x3ce74e20	0.028235495
17	0x3e39474e	0.18093607
18	0x3d8bdb23	0.068289064
19	0xbd60c94b	-0.054879468
20	0x39afe006	0.00033545512
21	0xbd359c23	-0.044338357
22	0xbc839ba6	-0.01606543
23	0x3d97c4ff	0.07410621
24	0x3c172ed6	0.009227475
25	0xbd2338df	-0.03984916
26	0xbdf4d049	-0.1195379
27	0x3e259f92	0.16174152
28	0x3d69a39d	0.0570408
29	0x3cca2100	0.024673939
30	0xbe3a489e	-0.18191764
31	0xbc576ab8	-0.013148002
32	0x3eda13d1	0.42593244
33	0x3def7924	0.116930276
34	0x3d775540	0.060384035
35	0xbdc6b8dd	-0.097032286
36	0x3e078eb5	0.13238032
37	0xbeb06fd5	-0.3446032
38	0x3df6723d	0.12033508
39	0x3e78b0b2	0.24286154
40	0xbd86e215	-0.065860905
41	0xbd98bfaf	-0.07458436
42	0xbc9d1a7d	-0.01917767
43	0x3dbce771	0.092238314
44	0x3c9126b0	0.017718643
45	0x3c8c5105	0.017128477
46	0xbc599dc7	-0.013282246
47	0xbb0d4fbf	-0.0021562425
48	0x3dee2c90	0.11629593
49	0xbd267197	-0.04063567
50	0xbd93a62c	-0.07209429
51	0xbea82018	-0.32836986
52	0x3e52e45c	0.20594925
53	0xbc0bdd66	-0.008536672
54	0xbc384d46	-0.011248892
55	0xbdc1616a	-0.094424084
56	0x3b077376	0.0020668185
57	0xbcf69d25	-0.03010423
58	0x3d35bea3	0.04437126
59	0xbd0f26a5	-0.034948964
60	0xbb6e0f25	-0.0036324945
61	0x3c883c91	0.016630443
62	0x3cbab168	0.022789672
63	0xbda3972c	-0.07987818
64	0x3c58fea0	0.013244301
65	0xbefd21ad	-0.49439755
66	0x3b014181	0.0019722881
67	0x3c8ad554	0.016947426
68	0x3e358d16	0.17729601
69	0x3d9b972d	0.07597194
70	0xbb97aa36	-0.004628445
71	0xbdba2e94	-0.09090915
72	0xbe82f8d0	-0.25580454
73	0xbbb047b1	-0.00537964
74	0x3e034045	0.12817486
75	0x3dfc9a0c	0.123340696
76	0xbc7c8d14	-0.015414495
77	0x3bac6206	0.0052607087
78	0x3d1a5d5f	0.037686702
79	0xbc3e788a	-0.011625418
80	0xba3eeba8	-0.00072830403
81	0xbce07fbb	-0.027404657
82	0xbe4f610d	-0.20251866
83	0x3db7df7b	0.089781724
84	0xbd0d6cda	-0.034527637
85	0xbe8270ad	-0.2547659
86	0x3b0b4b60	0.0021254644
87	0x3c89f294	0.016839303
88	0xbc1cbc23	-0.00956634
89	0xbd582d97	-0.052777853
90	0x3d0a42c9	0.033755098
91	0x3c79c7be	0.015245376
92	0xbd58db92	-0.052943774
93	0x3dabc861	0.083878286
94	0x3d8acd73	0.067774676
95	0xbd3e3aaa	-0.046442665
96	0xbd727c7a	-0.05920074
97	0x3c2585a8	0.010102667
98	0x3f8d6fd8	1.1049757
99	0xbd87e2fe	-0.06635092
100	0xbbf2ade9	-0.0074059856
101	0xbdbbd9f8	-0.091724336
102	0xbe85fd69	-0.261699
103	0x3deb9ab8	0.1150412
104	0x3e83f2b6	0.2577111
105	0xbda2633c	-0.07929084
106	0xbb568ef8	-0.0032739025
107	0x3cc2dab6	0.02378593
108	0xbb588956	-0.0033040843
109	0xbc639616	-0.013890764
110	0x3cb985a4	0.022646733
111	0xbced646b	-0.028978547
112	0x3e0d7139	0.13812722
113	0x3d7e3c23	0.06206907
114	0x3d43b2e2	0.047778018
115	0x3d5f6033	0.054535102
116	0xbbd5df2e	-0.006526849
117	0x3ec5c6f9	0.38628367
118	0x3d54330f	0.051806506
119	0x3cb1cbe7	0.021703674
120	0xbb908263	-0.0044100746
121	0x3bde08ba	0.0067759426
122	0x3d14a6da	0.036291935
123	0xbbc72e83	-0.0060785427
124	0xbc520ce4	-0.012820456
125	0xbddddd2a	-0.10833199
126	0xbdd07926	-0.10179357
127	0x3c9ba20e	0.018998172
128	0x3a00c900	0.0004912764
129	0x3d3e6cc0	0.04649043
130	0xbd40ce52	-0.047071762
131	0x3da3127b	0.07962509
132	0x3db72a98	0.08943671
133	0x3b880006	0.0041503934
134	0x3d5843df	0.052799102
135	0x3d3cd5d3	0.046102356
136	0x3ce5eb5c	0.02806633
137	0xbf30f286	-0.6912006
138	0x3e002d6b	0.12517326
139	0xbd79fd3c	-0.06103252
140	0xbe03013b	-0.12793438
141	0xbd39de2a	-0.045377888
142	0x3d139a70	0.036035955
143	0x3cb3e601	0.02196026
144	0xbc994153	-0.018707907
145	0xbca2d69e	-0.019877728
146	0xba846a88	-0.001010255
147	0xbd425984	-0.04744865
148	0x3df09cbd	0.117486455
149	0xbe804153	-0.25049838
150	0xbe690d31	-0.22758938
151	0xbed5ff03	-0.4179612
152	0xbb306747	-0.0026917027
153	0xbd1a78ed	-0.03771298
154	0xbbd3d05e	-0.0064640483
155	0xbd042328	-0.03226009
156	0xbc8cdf22	-0.017196242
157	0x3cdd2922	0.026997153
158	0xbd2abe5d	-0.04168545
159	0x3e121249	0.14264788
160	0xbd8409ab	-0.064471565
161	0xbce66d40	-0.028128266
162	0xbdfcead8	-0.123494804
163	0xbd392f58	-0.045211166
164	0xbd6f3009	-0.05839542
165	0x3d0609f3	0.032724332
166	0xbd679d8c	-0.056546733
167	0x3d83b51c	0.06431028
168	0xbdd21f82	-0.10259916
169	0x3c65a04a	0.014015267
170	0x3e10eda1	0.14153148
171	0x3c19b241	0.009380878
172	0x3c2ef129	0.010677614
173	0xbcb37895	-0.021908084
174	0x3b748ec4	0.003731654
175	0x3be4eb7b	0.0069860793
176	0x3d9b54b5	0.07584516
177	0x3bde68a8	0.0067873783
178	0xbdd03892	-0.1016704
179	0x3d6e4696	0.058172785
180	0xbe110d3a	-0.14165202
181	0xbe4f67a7	-0.20254384
182	0xbd940c22	-0.07228877
183	0xbdbcd9b5	-0.09221212
184	0x3dba103b	0.09085127
185	0xbc8513b0	-0.01624474
186	0xbcdc0557	-0.026858015
187	0xbd05802e	-0.032592945
188	0xbd3c28d2	-0.045937367
189	0x3cd24cf3	0.025671458
190	0xbbbb1057	-0.005708735
191	0xbcf046be	-0.029330608
192	0x3ddf9697	0.109173946
193	0x3d450880	0.04810381
194	0x3d43ef78	0.047835797
195	0xbe005f17	-0.12536274
196	0xbd3d7584	-0.04625465
197	0x3edec306	0.43508166
198	0x3dc63ed3	0.096799515
199	0x3e8f56d3	0.2799593
200	0xbd9dd12c	-0.07705912
201	0xbe17fb34	-0.1484192
202	0xbdc682b5	-0.09692899
203	0xbe636061	-0.22204734
204	0xbeb1b8cd	-0.34711304
205	0xbcac206b	-0.021011552
206	0xbc97290b	-0.018452188
207	0x3d758b43	0.059947263
208	0x3cb1c0d5	0.021698395
209	0xbadfe4f4	-0.0017081783
210	0xbd3832dd	-0.044970382
211	0xbd0b7bdb	-0.034053665
212	0xbe0899e8	-0.1333996
213	0x3dea22d8	0.11432427
214	0xbd1c2654	-0.03812249
215	0x3e8fdeba	0.28099614
216	0x3db9501f	0.09048485
217	0x3d2210b6	0.039566718
218	0xbdc12ca4	-0.09432343
219	0x3c35b97f	0.011091589
220	0xbdaa730d	-0.083227254
221	0xbc7b7f79	-0.015350216
222	0x3d89c32a	0.06726678
223	0xbb0df4b9	-0.0021660759
224	0x3d442953	0.047890972
225	0x3e0af7ff	0.13571166
226	0x3c9dc3fc	0.019258492
227	0xbd32e49e	-0.043675058
228	0xbd9d9b86	-0.07695679
229	0x3ca18374	0.019716002
230	0xbd71474f	-0.058905896
231	0xbcc30c3d	-0.023809547
232	0xb9ab1b3c	-0.00032635953
233	0xbde9f8f6	-0.11424439
234	0x3d728955	0.059213
235	0x3dc71058	0.09719914
236	0xbc443821	-0.011976273
237	0xbcd56820	-0.026050627
238	0xbb39ab60	-0.0028330907
239	0x3d2a8ead	0.041639972
240	0x3cf699b0	0.03010258
241	0x3c899db3	0.01679883
242	0x3d2898e0	0.041161418
243	0x3cb69618	0.022288367
244	0x3d3042de	0.04303252
245	0x3d9c8c65	0.07643966
246	0xbbbdbad2	-0.005790093
247	0xbe6948f8	-0.22781742
248	0xbd40d6e1	-0.047079924
249	0x3bbb93ae	0.005724392
250	0x3de37ae6	0.111074254
251	0x3c192b2c	0.009348672
252	0x3cfc149c	0.030771546
253	0x3cfda75e	0.030963596
254	0x3db33633	0.08750572
255	0xbc1e799b	-0.009672548

fcs1.bias f4 [256]
0	0xbd1352a0	-0.03596747
1	0x3de33280	0.110936165
2	0xbdff06eb	-0.124524914
3	0x3e57f59d	0.21089788
4	0xbdd5324e	-0.104099855
5	0xbe962a4e	-0.2932915
6	0xbe75c624	-0.24001366
7	0xbdb09758	-0.086226165
8	0xbd38dadb	-0.04513059
9	0x3d0f821a	0.035036184
10	0xbe1d2730	-0.1534698
11	0x3ca6be91	0.020354541
12	0x3de1a8e5	0.11018542
13	0xbdbeb0c1	-0.09311057
14	0xbb18353f	-0.0023225097
15	0xbd46b9a1	-0.048516873
16	0xbccfc41f	-0.025362073
17	0xbe045ab7	-0.1292523
18	0x3e021fc0	0.12707424
19	0xbe64437f	-0.22291373
20	0xbdc66ec0	-0.09689093
21	0x3b45a324	0.0030157054
22	0x3d8a6338	0.06757206
23	0xbd876e51	-0.06612838
24	0xbe0f1d39	-0.13975991
25	0xbe3c1e12	-0.18370846
26	0xbbea5dd4	-0.0071522985
27	0xbd69b21a	-0.057054617
28	0xbd0cf4f2	-0.034413286
29	0x3dd22969	0.102618046
30	0x3d493561	0.04912317
31	0xbde19504	-0.110147506
32	0xbe1b777e	-0.15182301
33	0xbe559fc0	-0.20861721
34	0x3c2f8864	0.01071367
35	0xbd46fa7b	-0.04857872
36	0x3e22a10d	0.15881748
37	0xbcf561b3	-0.029953813
38	0xbd9e496f	-0.0772885
39	0x3e51e01b	0.20495646
40	0xbd93c86e	-0.07215963
41	0xbd57c20e	-0.0526753
42	0x3d95f0d2	0.073213235
43	0xbe1accab	-0.15117137
44	0xbe2c2691	-0.16811587
45	0xbe3b82ee	-0.18311664
46	0x3dc54c3b	0.096336804
47	0x3d073ee2	0.033018954
48	0x3dadc821	0.08485437
49	0xbe815daa	-0.25266773
50	0xbe6c7b44	-0.23093897
51	0x3c938d4e	0.018011715
52	0xbe49dbe0	-0.19712782
53	0xbce1d144	-0.027565606
54	0xbe59a0bd	-0.21252723
55	0xbd7832a8	-0.060595185
56	0x3d127da2	0.035764344
57	0xbdd82595	-0.10554043
58	0xbe63042f	-0.22169565
59	0xbcca46f3	-0.024692034
60	0xbd64e668	-0.055883795
61	0x3e582c59	0.21110667
62	0xbe926627	-0.2859356
63	0xbe1a9d93	-0.15099172
64	0xbe387451	-0.18013121
65	0xbe75bcbc	-0.23997778
66	0xbc3155a0	-0.010823637
67	0x3dd51497	0.10404318
68	0xbc9cb1e6	-0.019127797
69	0xbd157da8	-0.03649679
70	0x3b745d53	0.003728707
71	0x3cbef218	0.023308799
72	0x3cc7ca18	0.024388358
73	0xbdcf0268	-0.10107881
74	0xbe0f9fa0	-0.14025736
75	0x3d856492	0.06513323
76	0xbcdad0e9	-0.026710944
77	0x3d100a59	0.03516612
78	0x3e61d402	0.22053531
79	0xbe5dfe66	-0.21679077
80	0x3d32613e	0.04354977
81	0x3c8a4959	0.016880678
82	0xbda3797f	-0.07982158
83	0x3d4ce97a	0.050027348
84	0xbd9aa7ee	-0.07551561
85	0xbe94b620	-0.290452
86	0x3db4efe3	0.08834817
87	0x3deb0aa4	0.11476639
88	0xbe0fc401	-0.14039613
89	0x3e26f637	0.16304861
90	0x3c844351	0.01614538
91	0xbe4a8ac9	-0.19779505
92	0x3cef044b	0.029176852
93	0xbe668315	-0.22510941
94	0xbe31e054	-0.1737073
95	0x3d961026	0.07327299
96	0x3e599bd9	0.21250857
97	0xbdbc2d91	-0.091883786
98	0x3e047959	0.12936915
99	0xbdaf98ec	-0.085740894
100	0x3db08721	0.08619524
101	0xbc481ed6	-0.012214383
102	0xbd8c576d	-0.06852613
103	0xbd9db352	-0.07700218
104	0xbe450e3d	-0.19243713
105	0xbbe6ce05	-0.0070436024
106	0xbe8e9511	-0.27848104
107	0xbd7075f3	-0.058706235
108	0xbd5f223e	-0.054476015
109	0xbda18c8a	-0.07888134
110	0x3d194ab9	0.037424777
111	0xbbe9e9ec	-0.0071384814
112	0xbe1eff6a	-0.1552712
113	0x3d7eec61	0.062237147
114	0xbe0af7a8	-0.13571036
115	0xbde732f4	-0.112890154
116	0x3d092fb3	0.033492755
117	0xbdfb5a05	-0.12273029
118	0xbcb18dad	-0.021674002
119	0xbe937c80	-0.28805923
120	0x3d5151b7	0.05110332
121	0xbddefa78	-0.10887617
122	0xbc1e7652	-0.009671764
123	0xbc903f9e	-0.01760846
124	0xbdca2024	-0.098694116
125	0x3d485006	0.04890444
126	0xbd6585d0	-0.056035817
127	0x3d19a54d	0.03751116
128	0xbcdea61c	-0.027178816
129	0x3dcea075	0.100891985
130	0xbe366043	-0.17810158
131	0xbe578de3	-0.21050219
132	0xbce1f454	-0.027582325
133	0x3e49d399	0.19709624
134	0x3d85b7cb	0.06529196
135	0xbdbb0ba1	-0.091330774
136	0xbe54934b	-0.20759313
137	0xbd62a519	-0.05533323
138	0xbe9babe9	-0.30404595
139	0xbdba9456	-0.09110324
140	0x3d083115	0.033249933
141	0xbe847efb	-0.25878128
142	0xbe1f31a7	-0.15546285
143	0xbe8bf733	-0.27337036
144	0x3d8b1e26	0.0679286
145	0xbe3bba93	-0.18332891
146	0xbd9d2c34	-0.07674447
147	0xbe0ff202	-0.14057162
148	0x3dbf8893	0.09352221
149	0x3cb307e2	0.021854345
150	0xbcf83fcb	-0.030303856
151	0x3c194f77	0.009357325
152	0xbd38a276	-0.04507681
153	0x3d40a2cf	0.047030266
154	0xbb103982	-0.0022006934
155	0xbe670e39	-0.2256402
156	0x3de3c86d	0.111222126
157	0xbe821478	-0.2540624
158	0xbe3bf9f6	-0.18357071
159	0xbe01b398	-0.12666166
160	0x3d8689c0	0.065692425
161	0xbd9a39f0	-0.07530582
162	0xbd80efba	-0.06295724
163	0xbe81e790	-0.2537198
164	0xbe0be6f5	-0.13662322
165	0x3dc5a8c4	0.0965133
166	0xbd765a44	-0.060144678
167	0xbdc0cb96	-0.09413831
168	0xbdd5cefa	-0.10439868
169	0x3d2e298a	0.042520083
170	0xbdefc286	-0.11707024
171	0x3b6c322d	0.003604065
172	0x3d3b763f	0.045767065
173	0xbbc8d7f9	-0.0061292616
174	0x3cacf42c	0.021112524
175	0x3c046f44	0.008083168
176	0x3dad5c8d	0.08464918
177	0xbd18a2f7	-0.03726479
178	0x3d9b9208	0.075962126
179	0xbd9781fd	-0.0739784
180	0xbd96e795	-0.073683895
181	0xbccdd569	-0.025126176
182	0xbe3c62d9	-0.18397082
183	0xbde5dd03	-0.11223795
184	0xbdef2997	-0.116778545
185	0xbdb0fc27	-0.08641844
186	0xbd753a19	-0.05986986
187	0xbd8a343c	-0.06748244
188	0xbcc3482e	-0.023838129
189	0x3c8d90ca	0.017280955
190	0xbdca8587	-0.098887496
191	0x3c0f9f27	0.008765972
192	0x3c46e283	0.012138966
193	0x3bc776a8	0.006087143
194	0x3de8b3a0	0.11362386
195	0xbe0232d5	-0.12714703
196	0xbe13ea18	-0.14444768
197	0xbe27e74f	-0.16396831
198	0xbe56f5e0	-0.20992231
199	0xbe0bc36d	-0.13648768
200	0xbd147308	-0.036242515
201	0x3db5ac52	0.08870758
202	0xbd9b1142	-0.07571651
203	0xbe404d74	-0.18779546
204	0x3d94d453	0.0726706
205	0xbd914bbe	-0.07094525
206	0x3c6f93a7	0.014622605
207	0x3d9e3c04	0.07726291
208	0xbd6fe49a	-0.05856762
209	0xbe083a68	-0.1330353
210	0x3d2a7121	0.041611794
211	0x3cf24426	0.029573511
212	0xbd901feb	-0.07037338
213	0xbe30921f	-0.17243241
214	0xba765f45	-0.00093983515
215	0x3c6e4d8b	0.014544855
216	0xbdd16fe0	-0.102264166
217	0x3d5c0b1f	0.053721543
218	0x3d91bec7	0.07116466
219	0xbd2b393d	-0.041802634
220	0x3d8f3f16	0.069944546
221	0xbe2c8640	-0.16848087
222	0xbd82cbef	-0.063865535
223	0xbe8fca15	-0.28083864
224	0x3d820ae0	0.063497305
225	0xbe4b192c	-0.19833821
226	0xbe9a19c8	-0.30097795
227	0xbdacd147	-0.08438354
228	0xbe138f38	-0.14410102
229	0x3e1cd1ae	0.15314361
230	0xbd96612c	-0.07342753
231	0x3e335d43	0.17516045
232	0xbe3c012b	-0.1835982
233	0xbeacc5a6	-0.33744544
234	0x3e60a812	0.21939114
235	0xbe637c7d	-0.22215457
236	0xbd18d7e7	-0.037315276
237	0x3d393b15	0.04522236
238	0x3da6c0cb	0.08142241
239	0xbe3a4d5d	-0.18193574
240	0xbc045d00	-0.008078814
241	0xbe19a685	-0.15004928
242	0x3d99c82e	0.07508884
243	0x3df1a54f	0.11799108
244	0x3c8a8e8e	0.016913678
245	0xbcf0c495	-0.029390613
246	0xbd1afb7f	-0.0378375
247	0x3d81a9f5	0.06331245
248	0x3dcd141f	0.100136034
249	0xbdc52163	-0.09625509
250	0x3e072b55	0.13200124
251	0xbe3d3daa	-0.18480554
252	0x3ca0719c	0.019585423
253	0xbcb96400	-0.022630692
254	0xbcf3d80d	-0.029766107
255	0x3d527eb0	0.05139035

bn1.weight f4 [256]
0	0x3f1851b1	0.5949965
1	0x3ece5d48	0.40305543
2	0x3f343551	0.70393854
3	0x3ae6bc00	0.0017603636
4	0x3ee5bb02	0.44869238
5	0x3ecbe174	0.39820445
6	0x3defc8e8	0.11708242
7	0x3ef3e1ea	0.47633296
8	0x3f1dc4d0	0.6162844
9	0x3c651500	0.013982058
10	0x3f68d688	0.9095235
11	0x3f487e77	0.7831797
12	0x3f7e4924	0.99330354
13	0x3e91f6ba	0.2850855
14	0x3e151aec	0.14561051
15	0x3f4e20eb	0.8051898
16	0x3f78506c	0.96997714
17	0x3e55943c	0.20857328
18	0x3e53a034	0.20666581
19	0x3eed1d32	0.46311337
20	0x3f6cd6fe	0.9251555
21	0x3ed869ca	0.4226821
22	0x3cacda00	0.021100044
23	0x3e961664	0.29313958
24	0x3e5afe2c	0.21386021
25	0x3f60812e	0.8769711
26	0x3e098208	0.13428509
27	0x3f5f8ca1	0.8732396
28	0x3f2fd1dc	0.68679595
29	0x3ee924b4	0.45535815
30	0x3ebfbd52	0.37449127
31	0x3f46b501	0.7761994
32	0x3e5e1668	0.21688235
33	0x3e9d1b90	0.3068509
34	0x3f70f153	0.9411823
35	0x3e9d0336	0.30666512
36	0x3f0cfef9	0.5507656
37	0x3f67f663	0.9061033
38	0x3ddce4b0	0.10785806
39	0x3f152ad9	0.58268505
40	0x3f038cd8	0.51386786
41	0x3e7785b0	0.24172091
42	0x3f675754	0.9036763
43	0x3f5827a4	0.84435487
44	0x3eef39ea	0.46723872
45	0x3ee47730	0.44622183
46	0x3f4fba1e	0.8114337
47	0x3eab4d18	0.33457255
48	0x3f487734	0.7830689
49	0x3e2a73dc	0.1664576
50	0x3db6d750	0.08927786
51	0x3f557638	0.8338351
52	0x3f5750dc	0.84107757
53	0x3de3f790	0.11131203
54	0x3ec76088	0.38940835
55	0x3f365fc1	0.7123986
56	0x3f446045	0.76709396
57	0x3f4c44ac	0.79792285
58	0x3f59b555	0.85042316
59	0x3e8ad5f4	0.27116358
60	0x3f1b4671	0.6065436
61	0x3f6df398	0.9294982
62	0x3db7a440	0.08966875
63	0x3f5306f8	0.8243251
64	0x3f2061ec	0.62649417
65	0x3f05987a	0.52185786
66	0x3f7ecd70	0.9953222
67	0x3e95aaf4	0.2923199
68	0x3eb9833c	0.36232936
69	0x3e038480	0.12843513
70	0x3f6bc555	0.9209798
71	0x3e09bf0c	0.13451785
72	0x3f7278b9	0.9471546
73	0x3e073dd4	0.1320718
74	0x3f495f54	0.78661084
75	0x3e802aa2	0.25032526
76	0x3f707c7e	0.9393996
77	0x3e293244	0.16523081
78	0x3e34752c	0.17622823
79	0x3eb62324	0.35573685
80	0x3dc8bbc8	0.098014414
81	0x3f79aaa3	0.97525996
82	0x3f2f533a	0.6848637
83	0x3e69e954	0.22842914
84	0x3df9cf68	0.12197763
85	0x3eab6256	0.33473462
86	0x3f1339bf	0.5750999
87	0x3e8cbac4	0.2748624
88	0x3f4a6173	0.79054946
89	0x3e8250c2	0.25452238
90	0x3f2623c9	0.64898354
91	0x3f5c289b	0.8599946
92	0x3e14ff5c	0.14550537
93	0x3de07df8	0.10961527
94	0x3cb27d20	0.02178818
95	0x3f181633	0.59408873
96	0x3f647e3b	0.8925511
97	0x3e395a90	0.18100953
98	0x3edd8560	0.4326582
99	0x3f5020e1	0.8130017
100	0x3f63518b	0.887963
101	0x3f4630ed	0.77418405
102	0x3f28fe48	0.66013
103	0x3f1636eb	0.5867755
104	0x3f0965ee	0.5367116
105	0x3f6fbf5d	0.9365137
106	0x3f0491a1	0.5178471
107	0x3f31beaf	0.69431585
108	0x3eed511c	0.46350944
109	0x3f655fde	0.89599407
110	0x3b92b700	0.0044773817
111	0x3eae953e	0.34098238
112	0x3caa9ae0	0.020825803
113	0x3f1e0f3f	0.61742014
114	0x3ec56d56	0.3855998
115	0x3db670a8	0.08908206
116	0x3defac10	0.1170274
117	0x3f24829a	0.6426178
118	0x3f601ce4	0.87544084
119	0x3f6d09ee	0.92593277
120	0x3f57d809	0.8431402
121	0x3dc54c08	0.096336424
122	0x3f6a67b8	0.9156451
123	0x3f7a0343	0.97661227
124	0x3f063351	0.5242205
125	0x3ca3a020	0.019973814
126	0x3e0dd1c0	0.13849545
127	0x3d6a91e0	0.057268023
128	0x3f149e22	0.5805379
129	0x3f6943e1	0.911192
130	0x3f521baf	0.8207349
131	0x3e837f60	0.25683117
132	0x3e909014	0.28234923
133	0x3f1e44f9	0.61823994
134	0x3e6d3a18	0.23166692
135	0x3ee7840a	0.45217925
136	0x3f25092a	0.6446711
137	0x3ea2418c	0.31690633
138	0x3f2ddc69	0.67914444
139	0x3edb8d4c	0.42881238
140	0x3f75ca05	0.9601138
141	0x3db6a9e0	0.0891912
142	0x3f6c0a9e	0.922037
143	0x3f56523b	0.83719224
144	0x3d560080	0.05224657
145	0x3f1e14bf	0.61750406
146	0x3edf39a2	0.43598658
147	0x3f3c2177	0.73488563
148	0x3f5c8656	0.8614248
149	0x3e6ce20c	0.23133105
150	0x3e5ccc3c	0.21562284
151	0x3e0bc998	0.1365112
152	0x3f5ce96e	0.86293685
153	0x3da64fa0	0.08120656
154	0x3e413d78	0.18871105
155	0x3f735006	0.9504398
156	0x3f41f65d	0.75766546
157	0x3f57dc16	0.843202
158	0x3f6e480a	0.9307867
159	0x3d8294e0	0.06376052
160	0x3ec04f0e	0.37560314
161	0x3eea6ab6	0.4578454
162	0x3f7665f0	0.96249294
163	0x3eb7a8a6	0.35870856
164	0x3eeedc04	0.46652234
165	0x3f489973	0.78359145
166	0x3f42ad47	0.7604565
167	0x3e31d730	0.17367244
168	0x3d868598	0.0656845
169	0x3e9f5226	0.31117362
170	0x3f28d8f3	0.6595604
171	0x3f79ce5e	0.97580516
172	0x3f39b71e	0.7254504
173	0x3f4a107e	0.78931415
174	0x3f27651b	0.6538865
175	0x3ebeee1e	0.37291044
176	0x3ed5c05e	0.41748327
177	0x3f6baa17	0.9205641
178	0x3f1b43ba	0.6065022
179	0x3f19935e	0.5999049
180	0x3f4ae7d3	0.79259986
181	0x3f5c4488	0.8604207
182	0x3f24868d	0.6426781
183	0x3ee62a4c	0.44954145
184	0x3e8ec54c	0.278849
185	0x3e48e408	0.19618237
186	0x3e800654	0.25004828
187	0x3f682c33	0.9069244
188	0x3f65e844	0.89807534
189	0x3e714c98	0.23564374
190	0x3f6bfac5	0.9217952
191	0x3ebddc76	0.3708226
192	0x3ebf4f7e	0.37365335
193	0x3f28a1b5	0.65871745
194	0x3dbfa1f0	0.09357059
195	0x3e5115b8	0.20418441
196	0x3eda8ce4	0.42685616
197	0x3eaf8b42	0.34285933
198	0x3f40a058	0.75244665
199	0x3ec374d8	0.38175082
200	0x3d9766e0	0.07392669
201	0x3d8476a8	0.064679444
202	0x3f7b98fd	0.98280317
203	0x3f39b8ac	0.7254741
204	0x3b168e00	0.0022972822
205	0x3db7e790	0.08979714
206	0x3e3ca5d0	0.18422627
207	0x3f73eac4	0.952801
208	0x3f45a569	0.7720552
209	0x3f29c851	0.66321284
210	0x3f4876cf	0.7830629
211	0x3f15ae99	0.5846954
212	0x3f5b43bf	0.8565025
213	0x3dc78520	0.097421885
214	0x3f64958c	0.8929069
215	0x3f3a8226	0.7285484
216	0x3f2a7cbb	0.66596574
217	0x3f51d9dd	0.8197306
218	0x3ecdfc3c	0.40231502
219	0x3e8662c4	0.26247227
220	0x3eba5ba6	0.36398047
221	0x3dffdf50	0.12493765
222	0x3f00df53	0.50340766
223	0x3f41d61f	0.7571735
224	0x3f17d3e9	0.59307724
225	0x3ef726c8	0.48271775
226	0x3f306ce9	0.68916184
227	0x3d3474b0	0.044056594
228	0x3e2f601c	0.17126507
229	0x3d822228	0.06354171
230	0x3f7f414d	0.99709016
231	0x3d3a7be0	0.045528293
232	0x3f3ccde2	0.7375165
233	0x3f5c01ae	0.85940063
234	0x3eb76c40	0.35824776
235	0x3ed7a840	0.42120552
236	0x3f69261c	0.91073775
237	0x3dbb0060	0.09130931
238	0x3aa8ba00	0.0012872815
239	0x3eda77e6	0.426696
240	0x3edf3894	0.43597853
241	0x3e9737d4	0.2953478
242	0x3f09fc37	0.53900474
243	0x3f441b49	0.76604134
244	0x3f447bf3	0.7675163
245	0x3f254931	0.64564806
246	0x3f5a65fb	0.8531186
247	0x3e88a826	0.26690787
248	0x3f088cd6	0.533399
249	0x3f2ae997	0.6676268
250	0x3f292a1e	0.6607989
251	0x3ea42778	0.32061362
252	0x3f67f1b4	0.90603185
253	0x3df17868	0.11790544
254	0x3e868be4	0.26278603
255	0x3ca6e3e0	0.020372331

bn1.bias f4 [256]
0	0x00000000	0.0
1	0x00000000	0.0
2	0x00000000	0.0
3	0x00000000	0.0
4	0x00000000	0.0
5	0x00000000	0.0
6	0x00000000	0.0
7	0x00000000	0.0
8	0x00000000	0.0
9	0x00000000	0.0
10	0x00000000	0.0
11	0x00000000	0.0
12	0x00000000	0.0
13	0x00000000	0.0
14	0x00000000	0.0
15	0x00000000	0.0
16	0x00000000	0.0
17	0x00000000	0.0
18	0x00000000	0.0
19	0x00000000	0.0
20	0x00000000	0.0
21	0x00000000	0.0
22	0x00000000	0.0
23	0x00000000	0.0
24	0x00000000	0.0
25	0x00000000	0.0
26	0x00000000	0.0
27	0x00000000	0.0
28	0x00000000	0.0
29	0x00000000	0.0
30	0x00000000	0.0
31	0x00000000	0.0
32	0x00000000	0.0
33	0x00000000	0.0
34	0x00000000	0.0
35	0x00000000	0.0
36	0x00000000	0.0
37	0x00000000	0.0
38	0x00000000	0.0
39	0x00000000	0.0
40	0x00000000	0.0
41	0x00000000	0.0
42	0x00000000	0.0
43	0x00000000	0.0
44	0x00000000	0.0
45	0x00000000	0.0
46	0x00000000	0.0
47	0x00000000	0.0
48	0x00000000	0.0
49	0x00000000	0.0
50	0x00000000	0.0
51	0x00000000	0.0
52	0x00000000	0.0
53	0x00000000	0.0
54	0x00000000	0.0
55	0x00000000	0.0
56	0x00000000	0.0
57	0x00000000	0.0
58	0x00000000	0.0
59	0x00000000	0.0
60	0x00000000	0.0
61	0x00000000	0.0
62	0x00000000	0.0
63	0x00000000	0.0
64	0x00000000	0.0
65	0x00000000	0.0
66	0x00000000	0.0
67	0x00000000	0.0
68	0x00000000	0.0
69	0x00000000	0.0
70	0x00000000	0.0
71	0x00000000	0.0
72	0x00000000	0.0
73	0x00000000	0.0
74	0x00000000	0.0
75	0x00000000	0.0
76	0x00000000	0.0
77	0x00000000	0.0
78	0x00000000	0.0
79	0x00000000	0.0
80	0x00000000	0.0
81	0x00000000	0.0
82	0x00000000	0.0
83	0x00000000	0.0
84	0x00000000	0.0
85	0x00000000	0.0
86	0x00000000	0.0
87	0x00000000	0.0
88	0x00000000	0.0
89	0x00000000	0.0
90	0x00000000	0.0
91	0x00000000	0.0
92	0x00000000	0.0
93	0x00000000	0.0
94	0x00000000	0.0
95	0x00000000	0.0
96	0x00000000	0.0
97	0x00000000	0.0
98	0x00000000	0.0
99	0x00000000	0.0
100	0x00000000	0.0
101	0x00000000	0.0
102	0x00000000	0.0
103	0x00000000	0.0
104	0x00000000	0.0
105	0x00000000	0.0
106	0x00000000	0.0
107	0x00000000	0.0
108	0x00000000	0.0
109	0x00000000	0.0
110	0x00000000	0.0
111	0x00000000	0.0
112	0x00000000	0.0
113	0x00000000	0.0
114	0x00000000	0.0
115	0x00000000	0.0
116	0x00000000	0.0
117	0x00000000	0.0
118	0x00000000	0.0
119	0x00000000	0.0
120	0x00000000	0.0
121	0x00000000	0.0
122	0x00000000	0.0
123	0x00000000	0.0
124	0x00000000	0.0
125	0x00000000	0.0
126	0x00000000	0.0
127	0x00000000	0.0
128	0x00000000	0.0
129	0x00000000	0.0
130	0x00000000	0.0
131	0x00000000	0.0
132	0x00000000	0.0
133	0x00000000	0.0
134	0x00000000	0.0
135	0x00000000	0.0
136	0x00000000	0.0
137	0x00000000	0.0
138	0x00000000	0.0
139	0x00000000	0.0
140	0x00000000	0.0
141	0x00000000	0.0
142	0x00000000	0.0
143	0x00000000	0.0
144	0x00000000	0.0
145	0x00000000	0.0
146	0x00000000	0.0
147	0x00000000	0.0
148	0x00000000	0.0
149	0x00000000	0.0
150	0x00000000	0.0
151	0x00000000	0.0
152	0x00000000	0.0
153	0x00000000	0.0
154	0x00000000	0.0
155	0x00000000	0.0
156	0x00000000	0.0
157	0x00000000	0.0
158	0x00000000	0.0
159	0x00000000	0.0
160	0x00000000	0.0
161	0x00000000	0.0
162	0x00000000	0.0
163	0x00000000	0.0
164	0x00000000	0.0
165	0x00000000	0.0
166	0x00000000	0.0
167	0x00000000	0.0
168	0x00000000	0.0
169	0x00000000	0.0
170	0x00000000	0.0
171	0x00000000	0.0
172	0x00000000	0.0
173	0x00000000	0.0
174	0x00000000	0.0
175	0x00000000	0.0
176	0x00000000	0.0
177	0x00000000	0.0
178	0x00000000	0.0
179	0x00000000	0.0
180	0x00000000	0.0
181	0x00000000	0.0
182	0x00000000	0.0
183	0x00000000	0.0
184	0x00000000	0.0
185	0x00000000	0.0
186	0x00000000	0.0
187	0x00000000	0.0
188	0x00000000	0.0
189	0x00000000	0.0
190	0x00000000	0.0
191	0x00000000	0.0
192	0x00000000	0.0
193	0x00000000	0.0
194	0x00000000	0.0
195	0x00000000	0.0
196	0x00000000	0.0
197	0x00000000	0.0
198	0x00000000	0.0
199	0x00000000	0.0
200	0x00000000	0.0
201	0x00000000	0.0
202	0x00000000	0.0
203	0x00000000	0.0
204	0x00000000	0.0
205	0x00000000	0.0
206	0x00000000	0.0
207	0x00000000	0.0
208	0x00000000	0.0
209	0x00000000	0.0
210	0x00000000	0.0
211	0x00000000	0.0
212	0x00000000	0.0
213	0x00000000	0.0
214	0x00000000	0.0
215	0x00000000	0.0
216	0x00000000	0.0
217	0x00000000	0.0
218	0x00000000	0.0
219	0x00000000	0.0
220	0x00000000	0.0
221	0x00000000	0.0
222	0x00000000	0.0
223	0x00000000	0.0
224	0x00000000	0.0
225	0x00000000	0.0
226	0x00000000	0.0
227	0x00000000	0.0
228	0x00000000	0.0
229	0x00000000	0.0
230	0x00000000	0.0
231	0x00000000	0.0
232	0x00000000	0.0
233	0x00000000	0.0
234	0x00000000	0.0
235	0x00000000	0.0
236	0x00000000	0.0
237	0x00000000	0.0
238	0x00000000	0.0
239	0x00000000	0.0
240	0x00000000	0.0
241	0x00000000	0.0
242	0x00000000	0.0
243	0x00000000	0.0
244	0x00000000	0.0
245	0x00000000	0.0
246	0x00000000	0.0
247	0x00000000	0.0
248	0x00000000	0.0
249	0x00000000	0.0
250	0x00000000	0.0
251	0x00000000	0.0
252	0x00000000	0.0
253	0x00000000	0.0
254	0x00000000	0.0
255	0x00000000	0.0

bn1.running_mean f4 [256]
0	0x00000000	0.0
1	0x00000000	0.0
2	0x00000000	0.0
3	0x00000000	0.0
4	0x00000000	0.0
5	0x00000000	0.0
6	0x00000000	0.0
7	0x00000000	0.0
8	0x00000000	0.0
9	0x00000000	0.0
10	0x00000000	0.0
11	0x00000000	0.0
12	0x00000000	0.0
13	0x00000000	0.0
14	0x00000000	0.0
15	0x00000000	0.0
16	0x00000000	0.0
17	0x00000000	0.0
18	0x00000000	0.0
19	0x00000000	0.0
20	0x00000000	0.0
21	0x00000000	0.0
22	0x00000000	0.0
23	0x00000000	0.0
24	0x00000000	0.0
25	0x00000000	0.0
26	0x00000000	0.0
27	0x00000000	0.0
28	0x00000000	0.0
29	0x00000000	0.0
30	0x00000000	0.0
31	0x00000000	0.0
32	0x00000000	0.0
33	0x00000000	0.0
34	0x00000000	0.0
35	0x00000000	0.0
36	0x00000000	0.0
37	0x00000000	0.0
38	0x00000000	0.0
39	0x00000000	0.0
40	0x00000000	0.0
41	0x00000000	0.0
42	0x00000000	0.0
43	0x00000000	0.0
44	0x00000000	0.0
45	0x00000000	0.0
46	0x00000000	0.0
47	0x00000000	0.0
48	0x00000000	0.0
49	0x00000000	0.0
50	0x00000000	0.0
51	0x00000000	0.0
52	0x00000000	0.0
53	0x00000000	0.0
54	0x00000000	0.0
55	0x00000000	0.0
56	0x00000000	0.0
57	0x00000000	0.0
58	0x00000000	0.0
59	0x00000000	0.0
60	0x00000000	0.0
61	0x00000000	0.0
62	0x00000000	0.0
63	0x00000000	0.0
64	0x00000000	0.0
65	0x00000000	0.0
66	0x00000000	0.0
67	0x00000000	0.0
68	0x00000000	0.0
69	0x00000000	0.0
70	0x00000000	0.0
71	0x00000000	0.0
72	0x00000000	0.0
73	0x00000000	0.0
74	0x00000000	0.0
75	0x00000000	0.0
76	0x00000000	0.0
77	0x00000000	0.0
78	0x00000000	0.0
79	0x00000000	0.0
80	0x00000000	0.0
81	0x00000000	0.0
82	0x00000000	0.0
83	0x00000000	0.0
84	0x00000000	0.0
85	0x00000000	0.0
86	0x00000000	0.0
87	0x00000000	0.0
88	0x00000000	0.0
89	0x00000000	0.0
90	0x00000000	0.0
91	0x00000000	0.0
92	0x00000000	0.0
93	0x00000000	0.0
94	0x00000000	0.0
95	0x00000000	0.0
96	0x00000000	0.0
97	0x00000000	0.0
98	0x00000000	0.0
99	0x00000000	0.0
100	0x00000000	0.0
101	0x00000000	0.0
102	0x00000000	0.0
103	0x00000000	0.0
104	0x00000000	0.0
105	0x00000000	0.0
106	0x00000000	0.0
107	0x00000000	0.0
108	0x00000000	0.0
109	0x00000000	0.0
110	0x00000000	0.0
111	0x00000000	0.0
112	0x00000000	0.0
113	0x00000000	0.0
114	0x00000000	0.0
115	0x00000000	0.0
116	0x00000000	0.0
117	0x00000000	0.0
118	0x00000000	0.0
119	0x00000000	0.0
120	0x00000000	0.0
121	0x00000000	0.0
122	0x00000000	0.0
123	0x00000000	0.0
124	0x00000000	0.0
125	0x00000000	0.0
126	0x00000000	0.0
127	0x00000000	0.0
128	0x00000000	0.0
129	0x00000000	0.0
130	0x00000000	0.0
131	0x00000000	0.0
132	0x00000000	0.0
133	0x00000000	0.0
134	0x00000000	0.0
135	0x00000000	0.0
136	0x00000000	0.0
137	0x00000000	0.0
138	0x00000000	0.0
139	0x00000000	0.0
140	0x00000000	0.0
141	0x00000000	0.0
142	0x00000000	0.0
143	0x00000000	0.0
144	0x00000000	0.0
145	0x00000000	0.0
146	0x00000000	0.0
147	0x00000000	0.0
148	0x00000000	0.0
149	0x00000000	0.0
150	0x00000000	0.0
151	0x00000000	0.0
152	0x00000000	0.0
153	0x00000000	0.0
154	0x00000000	0.0
155	0x00000000	0.0
156	0x00000000	0.0
157	0x00000000	0.0
158	0x00000000	0.0
159	0x00000000	0.0
160	0x00000000	0.0
161	0x00000000	0.0
162	0x00000000	0.0
163	0x00000000	0.0
164	0x00000000	0.0
165	0x00000000	0.0
166	0x00000000	0.0
167	0x00000000	0.0
168	0x00000000	0.0
169	0x00000000	0.0
170	0x00000000	0.0
171	0x00000000	0.0
172	0x00000000	0.0
173	0x00000000	0.0
174	0x00000000	0.0
175	0x00000000	0.0
176	0x00000000	0.0
177	0x00000000	0.0
178	0x00000000	0.0
179	0x00000000	0.0
180	0x00000000	0.0
181	0x00000000	0.0
182	0x00000000	0.0
183	0x00000000	0.0
184	0x00000000	0.0
185	0x00000000	0.0
186	0x00000000	0.0
187	0x00000000	0.0
188	0x00000000	0.0
189	0x00000000	0.0
190	0x00000000	0.0
191	0x00000000	0.0
192	0x00000000	0.0
193	0x00000000	0.0
194	0x00000000	0.0
195	0x00000000	0.0
196	0x00000000	0.0
197	0x00000000	0.0
198	0x00000000	0.0
199	0x00000000	0.0
200	0x00000000	0.0
201	0x00000000	0.0
202	0x00000000	0.0
203	0x00000000	0.0
204	0x00000000	0.0
205	0x00000000	0.0
206	0x00000000	0.0
207	0x00000000	0.0
208	0x00000000	0.0
209	0x00000000	0.0
210	0x00000000	0.0
211	0x00000000	0.0
212	0x00000000	0.0
213	0x00000000	0.0
214	0x00000000	0.0
215	0x00000000	0.0
216	0x00000000	0.0
217	0x00000000	0.0
218	0x00000000	0.0
219	0x00000000	0.0
220	0x00000000	0.0
221	0x00000000	0.0
222	0x00000000	0.0
223	0x00000000	0.0
224	0x00000000	0.0
225	0x00000000	0.0
226	0x00000000	0.0
227	0x00000000	0.0
228	0x00000000	0.0
229	0x00000000	0.0
230	0x00000000	0.0
231	0x00000000	0.0
232	0x00000000	0.0
233	0x00000000	0.0
234	0x00000000	0.0
235	0x00000000	0.0
236	0x00000000	0.0
237	0x00000000	0.0
238	0x00000000	0.0
239	0x00000000	0.0
240	0x00000000	0.0
241	0x00000000	0.0
242	0x00000000	0.0
243	0x00000000	0.0
244	0x00000000	0.0
245	0x00000000	0.0
246	0x00000000	0.0
247	0x00000000	0.0
248	0x00000000	0.0
249	0x00000000	0.0
250	0x00000000	0.0
251	0x00000000	0.0
252	0x00000000	0.0
253	0x00000000	0.0
254	0x00000000	0.0
255	0x00000000	0.0

bn1.running_var f4 [256]
0	0x3f800000	1.0
1	0x3f800000	1.0
2	0x3f800000	1.0
3	0x3f800000	1.0
4	0x3f800000	1.0
5	0x3f800000	1.0
6	0x3f800000	1.0
7	0x3f800000	1.0
8	0x3f800000	1.0
9	0x3f800000	1.0
10	0x3f800000	1.0
11	0x3f800000	1.0
12	0x3f800000	1.0
13	0x3f800000	1.0
14	0x3f800000	1.0
15	0x3f800000	1.0
16	0x3f800000	1.0
17	0x3f800000	1.0
18	0x3f800000	1.0
19	0x3f800000	1.0
20	0x3f800000	1.0
21	0x3f800000	1.0
22	0x3f800000	1.0
23	0x3f800000	1.0
24	0x3f800000	1.0
25	0x3f800000	1.0
26	0x3f800000	1.0
27	0x3f800000	1.0
28	0x3f800000	1.0
29	0x3f800000	1.0
30	0x3f800000	1.0
31	0x3f800000	1.0
32	0x3f800000	1.0
33	0x3f800000	1.0
34	0x3f800000	1.0
35	0x3f800000	1.0
36	0x3f800000	1.0
37	0x3f800000	1.0
38	0x3f800000	1.0
39	0x3f800000	1.0
40	0x3f800000	1.0
41	0x3f800000	1.0
42	0x3f800000	1.0
43	0x3f800000	1.0
44	0x3f800000	1.0
45	0x3f800000	1.0
46	0x3f800000	1.0
47	0x3f800000	1.0
48	0x3f800000	1.0
49	0x3f800000	1.0
50	0x3f800000	1.0
51	0x3f800000	1.0
52	0x3f800000	1.0
53	0x3f800000	1.0
54	0x3f800000	1.0
55	0x3f800000	1.0
56	0x3f800000	1.0
57	0x3f800000	1.0
58	0x3f800000	1.0
59	0x3f800000	1.0
60	0x3f800000	1.0
61	0x3f800000	1.0
62	0x3f800000	1.0
63	0x3f800000	1.0
64	0x3f800000	1.0
65	0x3f800000	1.0
66	0x3f800000	1.0
67	0x3f800000	1.0
68	0x3f800000	1.0
69	0x3f800000	1.0
70	0x3f800000	1.0
71	0x3f800000	1.0
72	0x3f800000	1.0
73	0x3f800000	1.0
74	0x3f800000	1.0
75	0x3f800000	1.0
76	0x3f800000	1.0
77	0x3f800000	1.0
78	0x3f800000	1.0
79	0x3f800000	1.0
80	0x3f800000	1.0
81	0x3f800000	1.0
82	0x3f800000	1.0
83	0x3f800000	1.0
84	0x3f800000	1.0
85	0x3f800000	1.0
86	0x3f800000	1.0
87	0x3f800000	1.0
88	0x3f800000	1.0
89	0x3f800000	1.0
90	0x3f800000	1.0
91	0x3f800000	1.0
92	0x3f800000	1.0
93	0x3f800000	1.0
94	0x3f800000	1.0
95	0x3f800000	1.0
96	0x3f800000	1.0
97	0x3f800000	1.0
98	0x3f800000	1.0
99	0x3f800000	1.0
100	0x3f800000	1.0
101	0x3f800000	1.0
102	0x3f800000	1.0
103	0x3f800000	1.0
104	0x3f800000	1.0
105	0x3f800000	1.0
106	0x3f800000	1.0
107	0x3f800000	1.0
108	0x3f800000	1.0
109	0x3f800000	1.0
110	0x3f800000	1.0
111	0x3f800000	1.0
112	0x3f800000	1.0
113	0x3f800000	1.0
114	0x3f800000	1.0
115	0x3f800000	1.0
116	0x3f800000	1.0
117	0x3f800000	1.0
118	0x3f800000	1.0
119	0x3f800000	1.0
120	0x3f800000	1.0
121	0x3f800000	1.0
122	0x3f800000	1.0
123	0x3f800000	1.0
124	0x3f800000	1.0
125	0x3f800000	1.0
126	0x3f800000	1.0
127	0x3f800000	1.0
128	0x3f800000	1.0
129	0x3f800000	1.0
130	0x3f800000	1.0
131	0x3f800000	1.0
132	0x3f800000	1.0
133	0x3f800000	1.0
134	0x3f800000	1.0
135	0x3f800000	1.0
136	0x3f800000	1.0
137	0x3f800000	1.0
138	0x3f800000	1.0
139	0x3f800000	1.0
140	0x3f800000	1.0
141	0x3f800000	1.0
142	0x3f800000	1.0
143	0x3f800000	1.0
144	0x3f800000	1.0
145	0x3f800000	1.0
146	0x3f800000	1.0
147	0x3f800000	1.0
148	0x3f800000	1.0
149	0x3f800000	1.0
150	0x3f800000	1.0
151	0x3f800000	1.0
152	0x3f800000	1.0
153	0x3f800000	1.0
154	0x3f800000	1.0
155	0x3f800000	1.0
156	0x3f800000	1.0
157	0x3f800000	1.0
158	0x3f800000	1.0
159	0x3f800000	1.0
160	0x3f800000	1.0
161	0x3f800000	1.0
162	0x3f800000	1.0
163	0x3f800000	1.0
164	0x3f800000	1.0
165	0x3f800000	1.0
166	0x3f800000	1.0
167	0x3f800000	1.0
168	0x3f800000	1.0
169	0x3f800000	1.0
170	0x3f800000	1.0
171	0x3f800000	1.0
172	0x3f800000	1.0
173	0x3f800000	1.0
174	0x3f800000	1.0
175	0x3f800000	1.0
176	0x3f800000	1.0
177	0x3f800000	1.0
178	0x3f800000	1.0
179	0x3f800000	1.0
180	0x3f800000	1.0
181	0x3f800000	1.0
182	0x3f800000	1.0
183	0x3f800000	1.0
184	0x3f800000	1.0
185	0x3f800000	1.0
186	0x3f800000	1.0
187	0x3f800000	1.0
188	0x3f800000	1.0
189	0x3f800000	1.0
190	0x3f800000	1.0
191	0x3f800000	1.0
192	0x3f800000	1.0
193	0x3f800000	1.0
194	0x3f800000	1.0
195	0x3f800000	1.0
196	0x3f800000	1.0
197	0x3f800000	1.0
198	0x3f800000	1.0
199	0x3f800000	1.0
200	0x3f800000	1.0
201	0x3f800000	1.0
202	0x3f800000	1.0
203	0x3f800000	1.0
204	0x3f800000	1.0
205	0x3f800000	1.0
206	0x3f800000	1.0
207	0x3f800000	1.0
208	0x3f800000	1.0
209	0x3f800000	1.0
210	0x3f800000	1.0
211	0x3f800000	1.0
212	0x3f800000	1.0
213	0x3f800000	1.0
214	0x3f800000	1.0
215	0x3f800000	1.0
216	0x3f800000	1.0
217	0x3f800000	1.0
218	0x3f800000	1.0
219	0x3f800000	1.0
220	0x3f800000	1.0
221	0x3f800000	1.0
222	0x3f800000	1.0
223	0x3f800000	1.0
224	0x3f800000	1.0
225	0x3f800000	1.0
226	0x3f800000	1.0
227	0x3f800000	1.0
228	0x3f800000	1.0
229	0x3f800000	1.0
230	0x3f800000	1.0
231	0x3f800000	1.0
232	0x3f800000	1.0
233	0x3f800000	1.0
234	0x3f800000	1.0
235	0x3f800000	1.0
236	0x3f800000	1.0
237	0x3f800000	1.0
238	0x3f800000	1.0
239	0x3f800000	1.0
240	0x3f800000	1.0
241	0x3f800000	1.0
242	0x3f800000	1.0
243	0x3f800000	1.0
244	0x3f800000	1.0
245	0x3f800000	1.0
246	0x3f800000	1.0
247	0x3f800000	1.0
248	0x3f800000	1.0
249	0x3f800000	1.0
250	0x3f800000	1.0
251	0x3f800000	1.0
252	0x3f800000	1.0
253	0x3f800000	1.0
254	0x3f800000	1.0
255	0x3f800000	1.0

fc2.weight f4 [128, 260]
0	0xbdd74d94	-0.10512844
1	0xbe261640	-0.16219425
2	0xbe2d794f	-0.16940807
3	0x3dfdd87f	0.12394809
4	0xbd9d7b01	-0.07689477
5	0xbe712ad7	-0.23551498
6	0xbc09c678	-0.008409135
7	0x3e54e1f1	0.20789315
8	0x3d90403f	0.07043504
9	0xb870d15f	-5.741545e-05
10	0x3d4b3dad	0.049619365
11	0x3b931f7b	0.0044898367
12	0xbd8c7eb8	-0.06860107
13	0xbe2423ad	-0.16029234
14	0x3d289bc0	0.04116416
15	0x3c748439	0.014924102
16	0x3e1c9f8a	0.15295234
17	0xbda908da	-0.082536414
18	0xba6f8edd	-0.0009138415
19	0x3d125fa2	0.035735734
20	0x3d219451	0.039448086
21	0xbe568254	-0.20948154
22	0x3d591839	0.053001616
23	0xbcb3d7d0	-0.021953493
24	0xbdb44841	-0.08802844
25	0x3e0a6c61	0.13517906
26	0x3d7de044	0.061981454
27	0x3decacaa	0.115563706
28	0x3dd92877	0.10603421
29	0xbdf4716a	-0.119356945
30	0x3dc35192	0.09537043
31	0xbe4bb2eb	-0.1989247
32	0x3d872a07	0.06599813
33	0x3da66d7e	0.08126353
34	0x3b331ec1	0.0027331563
35	0x3d886aa9	0.06660969
36	0xbdb3afd2	-0.087737694
37	0xbe0b03f8	-0.13575733
38	0xbe85b121	-0.261117
39	0xbd82529f	-0.06363415
40	0xbd81968c	-0.06327543
41	0x3cbe686d	0.023243153
42	0xbb4e1e88	-0.0031451304
43	0xbe0a01d8	-0.13477266
44	0xbe6d49fd	-0.23172756
45	0xbde89c67	-0.113579564
46	0x3cdccc01	0.026952745
47	0x3dce83e2	0.100837484
48	0xbd4b1239	-0.049577925
49	0x3d30cb1f	0.04316246
50	0x3c69f2fc	0.014279123
51	0xbd2ff149	-0.042954717
52	0xbc918c82	-0.017767195
53	0xbd86cd12	-0.06582083
54	0x3d9787ea	0.073989704
55	0x3dfb2950	0.12263739
56	0x3e3ef056	0.18646368
57	0xbd184482	-0.03717471
58	0x3dca9b50	0.09892905
59	0x3d7221dd	0.059114326
60	0x3d1a54f9	0.037678692
61	0xbb7f0329	-0.0038911796
62	0xbd6969e3	-0.056985747
63	0x3dac0ef4	0.084012896
64	0xbbc258a4	-0.005930977
65	0xbd5f702d	-0.05455034
66	0x3d0c8e67	0.034315493
67	0x3d489ac0	0.048975706
68	0xbe078f35	-0.13238223
69	0xbdf00457	-0.11719578
70	0xbe0159b0	-0.1263187
71	0x3c44f53d	0.01202136
72	0xbdb55028	-0.08853179
73	0x3d8e7548	0.069559634
74	0x3de19812	0.11015333
75	0x3d87f8b0	0.0663923
76	0xbcf7d3db	-0.030252388
77	0xbe22e913	-0.15909223
78	0x3cd55041	0.026039245
79	0x3cf75587	0.03019215
80	0xbd76487e	-0.060127728
81	0xbd65d91f	-0.056115266
82	0xbc89bcad	-0.0168136
83	0x3d9283d9	0.07154054
84	0xbd86477f	-0.065566055
85	0x3e64d935	0.22348483
86	0x3d1500c2	0.036377676
87	0x3df99404	0.12186435
88	0x3d254bf3	0.040355634
89	0x3ac71b63	0.0015190657
90	0x3d225c59	0.03963885
91	0xbc8ae1e5	-0.016953418
92	0x3d060faf	0.0327298
93	0x3e0b0644	0.13576609
94	0xbd0d0469	-0.034428034
95	0x3e055011	0.13018824
96	0x3dc65849	0.09684808
97	0xbdff8f05	-0.12478451
98	0xbdacdf65	-0.084410466
99	0x3dd6b80b	0.10484322
100	0xbceee6e9	-0.02916284
101	0xbdb4f6e5	-0.08836154
102	0x3d43d1cb	0.047807496
103	0x3cccb3e1	0.024988117
104	0xbcc18c98	-0.02362661
105	0xbe0b4948	-0.13602173
106	0xbddfa1cb	-0.109195314
107	0xbdcb9274	-0.09940043
108	0xbd891d30	-0.0669502
109	0xbe36fb9e	-0.17869422
110	0xbe0b3d87	-0.1359769
111	0xbd46bc46	-0.048519395
112	0xbdfafa0b	-0.12254723
113	0x3dc6bdbd	0.097041585
114	0x3d3ebcb9	0.0465667
115	0x3d6f816a	0.05847303
116	0xbe01051d	-0.12599607
117	0xbe41ecec	-0.18938035
118	0x3d44f54e	0.048085503
119	0x3e531094	0.20611793
120	0x3ce06ce4	0.027395673
121	0xbdc56618	-0.096386135
122	0xbdcbfc50	-0.09960234
123	0xbd4f701d	-0.05064403
124	0xbe2835b4	-0.16426736
125	0xbd4b6cf1	-0.04966444
126	0x3de80bbc	0.11330363
127	0x3d9a81e5	0.07544307
128	0xbbe4c809	-0.006981854
129	0x3dc79ef2	0.09747113
130	0x3e048041	0.1293955
131	0x3dc7f177	0.09762853
132	0xbcc9692a	-0.024586279
133	0x3bdfad3d	0.0068260715
134	0x3d9c6298	0.07635993
135	0xbd8836a9	-0.066510506
136	0x3dff7a38	0.12474483
137	0x3d173b17	0.036921587
138	0xbde05eea	-0.109556034
139	0x3ca3a7dc	0.019977503
140	0x3dcf8ac6	0.10133891
141	0xbe0f69b3	-0.14005165
142	0xbeba1e9d	-0.3635148
143	0xbe5c5250	-0.21515775
144	0x3d0a4aeb	0.033762854
145	0x3cde1acd	0.027112389
146	0x3d46464f	0.048406895
147	0xbd22c2f9	-0.03973672
148	0xbdbffca7	-0.093743615
149	0x3c5edf69	0.01360307
150	0xbd3e282b	-0.046425026
151	0x3d3d8020	0.046264768
152	0xbe5910c8	-0.21197808
153	0x3cd4ac76	0.025961142
154	0x3dcdc31c	0.1004698
155	0x3dc099bb	0.09404322
156	0x3d9c6ca1	0.07637907
157	0xbd4411f1	-0.047868673
158	0x3e454e32	0.1926811
159	0xbe088c8c	-0.13334864
160	0xbd8e535e	-0.06949495
161	0x3c869cae	0.016432133
162	0xbd6371a6	-0.055528305
163	0xbd83a456	-0.06427829
164	0x3e2c4305	0.16822441
165	0x3d16932b	0.036761444
166	0x3c2cfb95	0.010558029
167	0x3d85f498	0.06540793
168	0xbd2a5904	-0.0415888
169	0xbe1a1b02	-0.15049365
170	0x3cbab615	0.022791902
171	0x3d33565b	0.043783527
172	0x3df614bf	0.12015676
173	0x3cef57a0	0.029216588
174	0x3d82da32	0.06389274
175	0x3c9e9546	0.019358288
176	0x3dab659c	0.0836899
177	0xbe1bf94f	-0.15231822
178	0x3cf85bf4	0.030317284
179	0xbd8300e8	-0.06396657
180	0xbd74f26c	-0.059801504
181	0x3d0e7db9	0.034787867
182	0xbd49fd4a	-0.04931382
183	0x3db323ea	0.087470844
184	0x3de8300d	0.1133729
185	0x3d2e6975	0.04258104
186	0x3cb59134	0.022163965
187	0xbc5b0b63	-0.013369414
188	0xbccd8780	-0.025089025
189	0xbdc0a9c8	-0.09407383
190	0x3c31da26	0.010855233
191	0xbba3c040	-0.004997283
192	0xbd77f847	-0.06053951
193	0xbd2cfd9d	-0.042234052
194	0xbe3b25a1	-0.18276073
195	0xbe0e3065	-0.13885649
196	0x3cad4d85	0.021155128
197	0x3df3364e	0.11875592
198	0x3c9dc005	0.019256601
199	0xbdda08c0	-0.106462
200	0xbdd95cb4	-0.10613385
201	0xbdb16a1f	-0.08662819
202	0x3da1bae5	0.078969754
203	0x3d96c25c	0.0736129
204	0x3c4c42b6	0.012467077
205	0xbd551284	-0.05201961
206	0x3cc8bb09	0.024503248
207	0x3d0318d5	0.032006104
208	0xbdc4b682	-0.09605123
209	0xbe41fa52	-0.18943146
210	0xbd293ae7	-0.04131594
211	0xbdf3939c	-0.11893389
212	0x3e0acb40	0.13554096
213	0x3d96fb8f	0.073722
214	0xbd670495	-0.056400854
215	0x3df29f0a	0.118467405
216	0xbd4dad5c	-0.050214157
217	0x3dea389a	0.11436577
218	0xbcd8432b	-0.026399216
219	0xbb11491e	-0.0022168825
220	0x3da5563a	0.08073087
221	0x3d888146	0.06665282
222	0x3da55f8f	0.08074867
223	0x3dc41f86	0.09576325
224	0x3b62f442	0.0034630452
225	0x3e6aedc1	0.22942258
226	0xbda1b655	-0.07896105
227	0x3d94df04	0.07269099
228	0x3d60bca7	0.054867413
229	0x3e100c81	0.1406727
230	0xbd89fae6	-0.06737308
231	0xbdb725c0	-0.08942747
232	0xbdc44128	-0.0958274
233	0x3c40f960	0.011778206
234	0x3d9ac29f	0.07556652
235	0xbe77561b	-0.2415394
236	0xbdc5a092	-0.09649767
237	0xbd8ca9d0	-0.06868327
238	0x3c982268	0.018571094
239	0x3d405413	0.04695518
240	0x3da48e63	0.080349706
241	0xbd44398c	-0.047906443
242	0xbd9fa88b	-0.07795819
243	0xbcefd044	-0.029274113
244	0xbd57c1a9	-0.052674923
245	0x3d941b8c	0.07231817
246	0xbc99d7c8	-0.01877965
247	0xbada03ef	-0.0016633252
248	0xbbee556b	-0.007273366
249	0xbce64a31	-0.02811155
250	0xbda3d2a4	-0.07999161
251	0xbdd77f92	-0.10522379
252	0x3e3d7688	0.18502247
253	0x3c831b28	0.01600416
254	0xbedbf9ba	-0.42963964
255	0x3d200cdf	0.039074775

fc2.bias f4 [128]
0	0xbe209ea9	-0.15685524
1	0x3e2e70d0	0.17035222
2	0xbd79311f	-0.06083786
3	0xbd312589	-0.043248687
4	0x3ccb5ca2	0.024824444
5	0x3e819dc8	0.2531569
6	0xbe83cabe	-0.25740618
7	0x3de41dd7	0.11138504
8	0xbda65f40	-0.08123636
9	0x3e57171d	0.21004911
10	0xbd529161	-0.051408175
11	0x3d6fda3a	0.058557726
12	0x3e2bd199	0.16779174
13	0xbe476610	-0.19472528
14	0x3e14e16f	0.14539121
15	0xbe078581	-0.13234521
16	0x3d91ad00	0.07113075
17	0x3e23537a	0.15949813
18	0x3e5f5e05	0.2181321
19	0x3e3df5a6	0.18550739
20	0xbdd98138	-0.1062035
21	0x3d6c15ca	0.057637967
22	0x3db90aaa	0.09035237
23	0xbdff2419	-0.12458057
24	0xbd060378	-0.03271815
25	0xbd34933e	-0.044085734
26	0x3de277b6	0.11057989
27	0x3ecb474d	0.39702836
28	0x3d9c3a38	0.07628292
29	0xbe5a4f7c	-0.21319383
30	0x3c205508	0.009785898
31	0x3e72507f	0.2366352
32	0x3e80d5cc	0.25163114
33	0xbda1c360	-0.07898593
34	0xbe172aca	-0.14762416
35	0x3df63317	0.12021463
36	0x3e32acf9	0.17448796
37	0x3e3fcf09	0.18731321
38	0x3e402446	0.18763837
39	0xbe404392	-0.18775776
40	0xbd553468	-0.05205193
41	0x3bdb7306	0.0066970615
42	0x3d113f0e	0.035460524
43	0xbd941a61	-0.07231594
44	0x3e605dc3	0.21910767
45	0x3e2ab8d5	0.1667207
46	0xbd2e8f18	-0.042616934
47	0x3d2620b5	0.040558536
48	0x3e754e3e	0.23955628
49	0xbdcf235c	-0.10114166
50	0x3e5b5e52	0.21422699
51	0x3e4875a0	0.1957612
52	0x3db42f0b	0.08798035
53	0x3dfd6423	0.12372615
54	0xbe45b455	-0.19307072
55	0x3e3cf0a6	0.18451175
56	0x3d2cb4f1	0.042164747
57	0x3de81d6b	0.11333736
58	0xbe26e101	-0.1629677
59	0x3daffa10	0.085926175
60	0xbe32a3b4	-0.1744526
61	0x3e086c81	0.13322641
62	0x3e38b83f	0.18039034
63	0x3e20fbce	0.15721056
64	0xbdcf2185	-0.10113815
65	0xbd904452	-0.07044281
66	0x3e462084	0.19348341
67	0x3e5e6bd1	0.21720816
68	0xbcf49f43	-0.029861098
69	0x3deba56f	0.11506163
70	0x3d571536	0.052510463
71	0xbe1940b2	-0.14966086
72	0xbdb83db9	-0.08996148
73	0x3ce03b21	0.027371945
74	0x3e4e53b4	0.20149118
75	0x3d317d5d	0.043332446
76	0x3d75c2ed	0.06000035
77	0x3da2e417	0.07953661
78	0x3e0f2e05	0.13982399
79	0xbdbfe56b	-0.0936993
80	0x3e76f2c3	0.24116044
81	0xbd47869f	-0.04871237
82	0x3e2aca6a	0.16678777
83	0x3c47f060	0.012203306
84	0xbcb4e88a	-0.02208354
85	0xbe49ac80	-0.1969471
86	0x39b805d5	0.0003509956
87	0xbcb97449	-0.022638457
88	0x3bb9e18c	0.0056726392
89	0xbe958fb8	-0.2921121
90	0x3d4ab7c7	0.04949167
91	0x3d504a76	0.05085226
92	0x3c7e9978	0.0155395195
93	0xbd1dbf85	-0.038512725
94	0xbd8439ad	-0.06456313
95	0x3ccfe651	0.025378378
96	0x3e46c8c6	0.19412526
97	0x3e2f10dc	0.17096275
98	0x3d42993f	0.047509428
99	0x3e1ebd8d	0.15501995
100	0x3e1af658	0.15133035
101	0x3e223f0d	0.15844364
102	0x3e4219a8	0.189551
103	0x3e287f81	0.16454889
104	0xbc4a37d3	-0.012342411
105	0xbb5ca832	-0.0033669588
106	0xbcbad3ce	-0.022806074
107	0x3e293080	0.16522408
108	0xbe86cc51	-0.26327756
109	0x3e165b71	0.1468332
110	0x3da2a1f2	0.07941045
111	0x3bfe6edd	0.007764681
112	0x3e379539	0.17928018
113	0x3d0a72f3	0.03380103
114	0x3e4b9245	0.19880016
115	0x3d2f7036	0.042831622
116	0xbe7d5f5e	-0.24743411
117	0x3e2ff1f0	0.17182136
118	0x3e1858b6	0.1487759
119	0xbe30305f	-0.17205952
120	0xbdf883fa	-0.121345475
121	0xbd693ad3	-0.056940865
122	0x3d885630	0.06657064
123	0x3e04b74b	0.12960546
124	0x3e2fb86f	0.171602
125	0xbd65bce9	-0.056088362
126	0xbaa6a194	-0.0012712949
127	0xbb2878fc	-0.0025706878

bn2.weight f4 [128]
0	0x3ed51742	0.41619307
1	0x3e9aafa4	0.30212128
2	0x3f64791c	0.892473
3	0x3ed30e60	0.41221905
4	0x3f7edaeb	0.9955279
5	0x3f4e3e68	0.80563974
6	0x3ee83c6a	0.45358592
7	0x3f187352	0.59550965
8	0x3dec8a30	0.11549795
9	0x3e2ba88c	0.16763514
10	0x3f496f69	0.78685623
11	0x3f7f7189	0.99782616
12	0x3f568918	0.8380294
13	0x3deebc10	0.11656964
14	0x3f7bd41b	0.9837052
15	0x3ec506e0	0.38481808
16	0x3f7114be	0.94172275
17	0x3f091e42	0.53561795
18	0x3f26104f	0.64868635
19	0x3ef52504	0.47879803
20	0x3ea92c96	0.3304183
21	0x3d8b78d8	0.068101585
22	0x3cde7c60	0.027158916
23	0x3eb6e0de	0.35718435
24	0x3f48176e	0.7816075
25	0x3f34d10f	0.706315
26	0x3f3a9024	0.7287619
27	0x3f5a4957	0.8526816
28	0x3f2f578d	0.68492967
29	0x3f49ad32	0.787799
30	0x3f4a5549	0.79036385
31	0x3f20f83b	0.6287877
32	0x3f3cee7c	0.738014
33	0x3e3ffa4c	0.18747824
34	0x3f24b656	0.6434072
35	0x3e4e9bd8	0.20176637
36	0x3f222865	0.6334289
37	0x3f33eda4	0.70284486
38	0x3ef3ce78	0.4761846
39	0x3e6a1a3c	0.2286157
40	0x3d8b9d48	0.068171084
41	0x3f1918bb	0.5980336
42	0x3f2ab85e	0.6668757
43	0x3db21068	0.086945355
44	0x3eeb1fd4	0.4592272
45	0x3f333e44	0.70016885
46	0x3c559080	0.01303494
47	0x3ecca22c	0.39967477
48	0x3f20edd6	0.6286291
49	0x3aaf9600	0.0013396144
50	0x3f56d37c	0.8391645
51	0x3f308e56	0.6896719
52	0x3dae52e8	0.08511907
53	0x3ebd4b48	0.36971498
54	0x3f00dc62	0.5033628
55	0x3efe23c0	0.4963665
56	0x3f242a60	0.6412716
57	0x3ed35730	0.41277456
58	0x3e925e70	0.28587675
59	0x3ed90734	0.42388308
60	0x3d2f5170	0.042802274
61	0x3ee908d0	0.45514536
62	0x3eddaaec	0.43294466
63	0x3f316ef4	0.69309926
64	0x3df39690	0.11893952
65	0x3f27ab43	0.654957
66	0x3f2e57d8	0.6810279
67	0x3f620d52	0.88301575
68	0x3ec11cea	0.37717372
69	0x3f133019	0.57495266
70	0x3f14271f	0.57872194
71	0x3f1415b8	0.5784564
72	0x3e2a08a4	0.16604859
73	0x3e04e430	0.12977672
74	0x3e4858c8	0.19565117
75	0x3ed1ee3e	0.41002077
76	0x3f0feca0	0.56220436
77	0x3f47b82f	0.78015417
78	0x3de16840	0.11006212
79	0x3f377b87	0.7167286
80	0x3dda0348	0.10645157
81	0x3ef93aea	0.4867776
82	0x3f34469a	0.7042023
83	0x3f7f9a4e	0.99844825
84	0x3ef2d1bc	0.4742564
85	0x3f099028	0.5373559
86	0x3ef62d5c	0.4808148
87	0x3f5b368a	0.85630095
88	0x3f1b734b	0.607228
89	0x3f52447e	0.8213576
90	0x3f71a7c8	0.9439664
91	0x3e87df5e	0.26537603
92	0x3f041591	0.5159541
93	0x3f4cfe21	0.8007527
94	0x3f1c3c23	0.6102926
95	0x3f60ca7e	0.8780898
96	0x3ecc0740	0.3984928
97	0x3e447bcc	0.1918785
98	0x3f41f3b1	0.7576247
99	0x3f18678a	0.5953299
100	0x3df1fa70	0.11815345
101	0x3d09e840	0.033668756
102	0x3f02fa76	0.51163423
103	0x3f3397c0	0.7015343
104	0x3e176c94	0.14787513
105	0x3e35a488	0.17738545
106	0x3effa86a	0.49933177
107	0x3e2b6950	0.16739392
108	0x3dd3de28	0.10345107
109	0x3e19f9f8	0.15036762
110	0x3f73d98f	0.95253843
111	0x3f7c4e0d	0.98556596
112	0x3f3cd2c6	0.73759115
113	0x3f78766c	0.970557
114	0x3e7cb7bc	0.24679464
115	0x3f6c212e	0.9223813
116	0x3d4b8720	0.049689412
117	0x3ea345f8	0.3188932
118	0x3e17730c	0.1478998
119	0x3d509e80	0.050932407
120	0x3ed8d1ea	0.42347652
121	0x3e7c02b0	0.246104
122	0x3f533833	0.8250763
123	0x3f298b0d	0.662278
124	0x3e9c061a	0.30473405
125	0x3e94d30e	0.29067272
126	0x3f59d9da	0.8509804
127	0x3f4e16b2	0.8050338

bn2.bias f4 [128]
0	0x00000000	0.0
1	0x00000000	0.0
2	0x00000000	0.0
3	0x00000000	0.0
4	0x00000000	0.0
5	0x00000000	0.0
6	0x00000000	0.0
7	0x00000000	0.0
8	0x00000000	0.0
9	0x00000000	0.0
10	0x00000000	0.0
11	0x00000000	0.0
12	0x00000000	0.0
13	0x00000000	0.0
14	0x00000000	0.0
15	0x00000000	0.0
16	0x00000000	0.0
17	0x00000000	0.0
18	0x00000000	0.0
19	0x00000000	0.0
20	0x00000000	0.0
21	0x00000000	0.0
22	0x00000000	0.0
23	0x00000000	0.0
24	0x00000000	0.0
25	0x00000000	0.0
26	0x00000000	0.0
27	0x00000000	0.0
28	0x00000000	0.0
29	0x00000000	0.0
30	0x00000000	0.0
31	0x00000000	0.0
32	0x00000000	0.0
33	0x00000000	0.0
34	0x00000000	0.0
35	0x00000000	0.0
36	0x00000000	0.0
37	0x00000000	0.0
38	0x00000000	0.0
39	0x00000000	0.0
40	0x00000000	0.0
41	0x00000000	0.0
42	0x00000000	0.0
43	0x00000000	0.0
44	0x00000000	0.0
45	0x00000000	0.0
46	0x00000000	0.0
47	0x00000000	0.0
48	0x00000000	0.0
49	0x00000000	0.0
50	0x00000000	0.0
51	0x00000000	0.0
52	0x00000000	0.0
53	0x00000000	0.0
54	0x00000000	0.0
55	0x00000000	0.0
56	0x00000000	0.0
57	0x00000000	0.0
58	0x00000000	0.0
59	0x00000000	0.0
60	0x00000000	0.0
61	0x00000000	0.0
62	0x00000000	0.0
63	0x00000000	0.0
64	0x00000000	0.0
65	0x00000000	0.0
66	0x00000000	0.0
67	0x00000000	0.0
68	0x00000000	0.0
69	0x00000000	0.0
70	0x00000000	0.0
71	0x00000000	0.0
72	0x00000000	0.0
73	0x00000000	0.0
74	0x00000000	0.0
75	0x00000000	0.0
76	0x00000000	0.0
77	0x00000000	0.0
78	0x00000000	0.0
79	0x00000000	0.0
80	0x00000000	0.0
81	0x00000000	0.0
82	0x00000000	0.0
83	0x00000000	0.0
84	0x00000000	0.0
85	0x00000000	0.0
86	0x00000000	0.0
87	0x00000000	0.0
88	0x00000000	0.0
89	0x00000000	0.0
90	0x00000000	0.0
91	0x00000000	0.0
92	0x00000000	0.0
93	0x00000000	0.0
94	0x00000000	0.0
95	0x00000000	0.0
96	0x00000000	0.0
97	0x00000000	0.0
98	0x00000000	0.0
99	0x00000000	0.0
100	0x00000000	0.0
101	0x00000000	0.0
102	0x00000000	0.0
103	0x00000000	0.0
104	0x00000000	0.0
105	0x00000000	0.0
106	0x00000000	0.0
107	0x00000000	0.0
108	0x00000000	0.0
109	0x00000000	0.0
110	0x00000000	0.0
111	0x00000000	0.0
112	0x00000000	0.0
113	0x00000000	0.0
114	0x00000000	0.0
115	0x00000000	0.0
116	0x00000000	0.0
117	0x00000000	0.0
118	0x00000000	0.0
119	0x00000000	0.0
120	0x00000000	0.0
121	0x00000000	0.0
122	0x00000000	0.0
123	0x00000000	0.0
124	0x00000000	0.0
125	0x00000000	0.0
126	0x00000000	0.0
127	0x00000000	0.0
