models/checkpoint_actor_single.pth (torch_old, 169478 bytes, 6 tensors)

fc1.weight f4 [256, 33]
000000 16 cd ee bd 7d 53 cb 3c 5f 70 1f be 0c 8d 85 bc
       -0.11660211 0.024820084 -0.1557021 -0.016302608
000010 b9 0f ba bd d0 06 29 3e d3 e6 c2 be cb f9 b7 bd
       -0.0908503 0.16506505 -0.3806673 -0.08983191
000020 a3 58 79 3d 27 57 bb 3d b4 0d 0f bc ec a4 46 bd
       0.060875546 0.09147482 -0.008731294 -0.048497126
000030 07 ac 27 bc a5 aa 82 bd 76 b6 0c 3d 9a cb 73 3d
       -0.010233886 -0.06380204 0.034353696 0.05952034
000040 b7 b5 95 3d 30 21 7e 3e c2 22 83 3e 1c 88 bc 3d
       0.0731005 0.24817348 0.25612456 0.09205648
000050 bc 06 56 3d 29 f7 56 3d ac 5a 0b bd e1 ee 84 bd
       0.052252516 0.052481804 -0.03402202 -0.06490875
000060 e0 4f e0 3c d1 27 2d 3c bc 86 62 bd c3 16 80 3d
       0.027381837 0.010568575 -0.055304274 0.062543415
000070 d3 6c 39 be 70 2a 01 3d a6 d0 f0 bc 74 00 e9 3c
       -0.1810792 0.031534612 -0.029396366 0.028442599
000080 e1 03 19 bf 71 b7 67 3d f4 e1 35 3e 04 18 05 be
       -0.59771544 0.056571428 0.17761976 -0.12997442
000090 37 c4 de be a9 da 86 be 1e 1f 9a be 8b 91 0b be
       -0.43509075 -0.263387 -0.30101866 -0.13629739
0000a0 34 c0 b7 bb 21 85 cc 3c 5b cd 51 3e 20 47 12 3d
       -0.005607629 0.024965825 0.20488493 0.03571236
0000b0 0e 44 ca 3d 41 61 b1 bd 20 17 ff 3c 78 9f 06 bc
       0.09876262 -0.08661128 0.031138957 -0.008216731
0000c0 17 5f 89 3e 17 d4 f8 be 88 76 1e 3f 13 7d 87 3d
       0.2683036 -0.48599312 0.61899614 0.06615653
0000d0 59 02 0b 3e c8 32 05 be 14 df 5a 3e 25 9f 18 3d
       0.13575114 -0.13007653 0.2137416 0.037261147
0000e0 7c 9f 70 3e 3c c3 b0 bd a7 50 04 bd 3c 71 f0 ba
       0.23498338 -0.08630988 -0.03230348 -0.0018344293
0000f0 98 3b 3e 3d c5 11 a7 bd ca 5b 71 bd 10 88 0e bd
       0.04644355 -0.08157686 -0.058925427 -0.034797728
000100 1a 4e 54 3d 53 6a 45 be fa 18 a0 be 2e a6 da bc
       0.051832296 -0.1927884 -0.31269056 -0.026690569
000110 ae 15 54 3d a3 e8 27 bc 72 9b 0b be 16 ef d4 be
       0.051778488 -0.010248336 -0.13633516 -0.41588658
000120 c3 7c dd be 60 6b 74 bb 31 6b 9b 3c a6 8e 24 3e
       -0.43259248 -0.0037295446 0.018972011 0.16070041
000130 23 88 0b 3d 25 ec 2d 3c 5e 93 01 bd 83 25 e0 3d
       0.034065377 0.010615383 -0.03163468 0.10944655
000140 ec 1b 26 3d f1 a9 33 3d f2 8a f5 3e a8 3b 97 3e
       0.040553972 0.04386324 0.4795757 0.29537702
000150 d8 e9 c0 be 25 4e ff 3e af c5 45 bb b8 5b dc bd
       -0.3767841 0.49864307 -0.0030177643 -0.107596815
000160 af 01 51 bd 8e ee 01 3d 66 fa 04 bc 4e 46 89 bc
       -0.051026996 0.031721644 -0.00811634 -0.016757157
000170 e3 ca 0f 3e 9d 57 1b bd 8f 95 59 bc 28 41 06 3d
       0.14042239 -0.03792535 -0.013280286 0.03277698
000180 b4 8a c7 bc 7c a1 12 bd 17 33 7e bf 5d bb 8e 3e
       -0.024358131 -0.035798535 -0.99296707 0.27877322
000190 00 fa 3d bc 13 b6 5e 3e 7c 84 2a 3f c9 8f 82 3e
       -0.011595249 0.21749143 0.66608405 0.25500324
0001a0 04 be 2b bf a8 91 f6 3e 9e cd 75 3d da 45 38 3d
       -0.67086816 0.48158002 0.060010545 0.04498849
0001b0 0f 00 1f 3d 67 e7 25 3e 7e 1f 84 bc 9f 9d 15 3e
       0.038818415 0.16201554 -0.016128298 0.14610909
0001c0 34 b7 96 3d 7f 75 51 3d bc 7d bf bd 39 f1 9e bc
       0.07359162 0.051137444 -0.09350154 -0.019402133
0001d0 55 52 16 3e c2 76 2e 3f ec 11 32 3f b3 6a e2 bc
       0.14679845 0.6814996 0.69558597 -0.027638769
0001e0 65 77 ce 3d 44 2a d1 bd 51 38 a7 ba 94 1b d3 3c
       0.100813664 -0.1021314 -0.0012757872 0.025769986
0001f0 34 d7 53 bd 49 17 ad bd fb 32 01 3e ba 6d 13 3e
       -0.051718906 -0.08451707 0.12617104 0.14397326
000200 8c 51 63 bd b1 cd c5 bd 38 cd 34 bd e8 67 37 bf
       -0.05549769 -0.09658373 -0.044141024 -0.71642923
000210 37 3e ea 3c f0 7f e6 3d 4a 33 67 3a a8 a9 a4 3e
       0.02859412 0.11254871 0.00088195933 0.32160687
000220 8e 9a 84 bd 4d 5f 27 3f b8 19 db 3e c9 75 0b 3d
       -0.064747915 0.6537979 0.4279306 0.034047876
000230 12 21 40 3e 97 d2 bc bd 43 bd 82 bd 2a 4d a9 3d
       0.18762615 -0.09219854 -0.06383755 0.08266671
000240 fa 01 fb bc fd 68 d9 bc cd 06 76 bd cc 92 57 3e
       -0.030640591 -0.02653932 -0.06006508 0.21052092
000250 ad 19 47 bf ce 09 18 3f 8f 56 1c be 77 7c ed bd
       -0.77773553 0.5938996 -0.15267394 -0.115960054
000260 80 3b 2b bc 5d 21 e9 bd 0c a9 06 3c 6c 15 38 3d
       -0.010451198 -0.11383317 0.008219015 0.044942304
000270 85 1e 55 bc aa e7 e1 3d cf ca dd bd a4 49 b2 bd
       -0.013007765 0.110305145 -0.10829698 -0.08705452
000280 ed 3e a7 3d b8 4f 37 3c fa 21 ca 3d 28 a8 74 3d
       0.08166299 0.01118844 0.09869762 0.05973068
000290 84 40 00 bf 08 97 be bb f8 41 56 3d 12 0a fb 3c
       -0.50098443 -0.005816344 0.052309006 0.03064445
0002a0 1d 91 1e 3e c7 fd e2 3d 7d df 67 bd ad 48 a1 bc
       0.15485044 0.110835604 -0.05660962 -0.019687975
0002b0 f5 e2 28 bd 83 c5 51 bc 6e 9a 10 3d d4 56 c4 bc
       -0.041232068 -0.012803438 0.035303526 -0.023967184
0002c0 90 9c 21 bc ad 1f 80 bb 11 61 8c bc 3f 0b 00 bd
       -0.009863988 -0.003910026 -0.017136129 -0.031260725
0002d0 1b 04 f6 bc 43 b0 8e 3e fb d4 cc bc fb 45 c4 3d
       -0.030031255 0.27868852 -0.0250039 0.0958366
0002e0 65 01 4a 3e ba bd b7 3c 77 d6 e0 ba 20 74 a8 3c
       0.19727094 0.022429336 -0.0017153759 0.020563185
0002f0 1a 04 02 bc a2 b9 f8 bb d2 32 a7 bd 3c 79 ca 3d
       -0.007935548 -0.0075904885 -0.0816399 0.09886405
000300 a7 e6 ac 3d 78 00 93 3c e8 8c bf 3c 29 b1 bf bd
       0.08442431 0.01794456 0.023382619 -0.093599625
000310 b4 4c 82 3c fa c9 02 c0 6b d2 eb 3c b3 d1 4d 3d
       0.015905716 -2.0435777 0.028786859 0.050248813
000320 c1 07 40 bd 4f 92 3b 3e 88 65 e5 3d 3c cd ae bd
       -0.046882395 0.18317531 0.11201006 -0.08535239
000330 e4 f3 09 be f4 d4 d0 bc ab e9 c0 3c d5 31 58 3e
       -0.13471943 -0.025492169 0.023548922 0.2111276
000340 60 aa eb 3c c9 47 34 bd 72 51 3f 3c 10 17 d7 bd
       0.028767765 -0.044013772 0.011677133 -0.10502446
000350 dd 76 2f bd 7b 0e ce bc 38 2a 9c 3b f1 c3 d9 3d
       -0.042837966 -0.02515339 0.004765775 0.10633076
000360 e9 47 25 3e 7f cc 1c bd b1 d6 85 bd e6 ba 8e 3d
       0.16140713 -0.03828096 -0.0653509 0.06969242
000370 d3 dc 08 be 28 7c 33 3e b4 0c 02 3d 24 48 68 3e
       -0.13365488 0.1752783 0.031750396 0.2268377
000380 ac 21 46 3e ce 59 69 3e 04 5b 24 3e 90 ba 22 3d
       0.19348782 0.22788164 0.16050345 0.0397287
000390 dc b6 91 be 38 80 46 3c ed f2 c2 bf 0c 7c 95 be
       -0.28459823 0.012115531 -1.5230385 -0.29196203
0003a0 a3 b6 a5 3d 15 cf e1 3d b0 e0 a3 be ff f4 bf 3e
       0.08091476 0.11025826 -0.3200736 0.37491605
0003b0 6d f2 db 3d 0c 3d 93 3c 0b ac e5 3d 32 a2 28 3e
       0.107395984 0.017973445 0.11214455 0.16468123
0003c0 8a d1 03 be 03 a3 30 bd d2 c5 59 3d 5d 95 94 3d
       -0.12872902 -0.04312421 0.05316717 0.07255051
0003d0 c5 a9 1a 3e 81 98 55 3d 1c bd 17 3d 38 43 f6 3d
       0.15103824 0.052147392 0.037045583 0.1202454
0003e0 0d 72 80 3e f0 44 f8 3d 3d 63 c7 3c 04 08 da 3d
       0.25087014 0.12122524 0.024339313 0.1064606
0003f0 23 7a 73 be 98 44 8c 3d 7d 35 11 3d 86 11 28 3d
       -0.2377706 0.06849021 0.0354514 0.041032337

fc1.bias f4 [256]
000000 e1 5e 68 3d c9 29 0f 3e 5a 75 80 bc 70 e4 46 3c
       0.05673111 0.13980784 -0.015680958 0.012139425
000010 e9 62 35 3d 29 8b 82 be 55 26 c8 be e7 35 95 3c
       0.04428378 -0.25496796 -0.39091745 0.01821418
000020 8f f8 10 3e 3c 2a cf 3a 9e 38 2f be 62 a5 dc 3c
       0.14157318 0.0015805434 -0.17111441 0.02693433
000030 1f 79 db 3d c3 11 8a 3d 3e 62 13 3e e8 1a ef 3d
       0.107164614 0.06741669 0.14392945 0.11675054
000040 75 6f 9d be ee 43 31 be d4 31 7b 3e 71 2a cb bd
       -0.30749097 -0.1731107 0.24530727 -0.099202044
000050 57 40 ca 3c fd 55 49 bd fb a7 07 bd 0a 6c b1 bd
       0.024688883 -0.04915427 -0.033119183 -0.08663185
000060 b8 28 60 3d e9 f7 24 be c2 e4 87 3c ce b0 0d bd
       0.054726332 -0.16110195 0.016588572 -0.034592442
000070 db 93 d5 3d 23 4d 59 3e f1 cb 78 bd 77 25 02 3d
       0.10428592 0.21220832 -0.06074137 0.03177401
000080 cd 2f 74 be 94 15 66 be da e7 f0 3c d9 07 03 3e
       -0.2384636 -0.22469169 0.02940743 0.12795962
000090 52 cf d9 3d 1c 06 0c 3e 74 b5 01 be 67 e7 07 3e
       0.10635246 0.13674206 -0.12666875 0.13271867
0000a0 3a 48 47 be 06 cb 5c bd fe 7e 85 3d a6 98 ac be
       -0.19461146 -0.053904556 0.065183625 -0.33710212
0000b0 ca 3d bd 3d 28 08 04 be 13 7a 8a bd 93 07 0f 3d
       0.09240301 -0.12893736 -0.06761565 0.034919333
0000c0 37 ce 2a 3e 22 dc a7 bd c9 b5 ea bd 9c 25 1c 3e
       0.16680227 -0.08196284 -0.11460454 0.15248722
0000d0 10 bd a7 bd 18 2a 89 3d ec 07 35 be f7 30 5f 3c
       -0.08190358 0.06697482 -0.17678803 0.013622514
0000e0 d6 f2 27 3c ff 66 59 3e 04 a0 c4 3d 74 2c a8 3d
       0.010250768 0.21230696 0.09600833 0.08211604
0000f0 62 ce 49 be f9 7d 66 3e da 05 64 be fc 07 18 bb
       -0.19707635 0.22508992 -0.22267857 -0.0023198118
000100 a3 54 1f 3e 4c 5d 11 be 3b f9 74 3e 15 ed 1a 3e
       0.1555963 -0.14195746 0.23923199 0.15129502
000110 26 fa ff 3d 5f 30 99 3c d6 af 4d 3d 8f 3d 3f 3e
       0.12498884 0.018699823 0.05021652 0.18675826
000120 b5 43 56 bd bd 74 8d 3d 7f 42 6c bd 5a 97 91 3e
       -0.052310664 0.06907032 -0.057680603 0.28435785
000130 76 bc a6 ba c4 58 ea bd 96 bb 5e 3d 4a f1 d8 bd
       -0.0012720961 -0.11442712 0.054378115 -0.10592897
000140 64 13 ea 3d 29 44 6d 3e a8 1d a7 bd 2f 44 45 3d
       0.1142948 0.23170532 -0.08159953 0.048160728
000150 ae 88 1a 3e 74 5d cf bb 89 93 04 3e ba ed be 3d
       0.15091202 -0.006328279 0.12946905 0.093226865
000160 aa 78 df bd f6 d6 0a bd 3d 18 05 3e b7 2d d3 3d
       -0.10911687 -0.03389641 0.12997527 0.10311454
000170 c3 89 8a 3e ae 42 5c bd e8 d0 10 be a1 2b 2d bb
       0.2705823 -0.05377453 -0.14142191 -0.002642371
000180 48 ee 84 3c ae e5 95 3d c9 27 8d 3e 1b 93 f4 3b
       0.016226903 0.073191985 0.27569416 0.0074638254
000190 2f 93 9b 3d 2a 2e 43 3d 8a b6 0e 3e ab bd 07 be
       0.075964324 0.047651447 0.1393682 -0.13255946
0001a0 c5 52 21 be 11 ee c7 3d 5c bd 42 bd c5 83 f8 3d
       -0.1575423 0.097622044 -0.04754387 0.12134508
0001b0 83 48 8e bd dd ec da bb c5 9b 82 3e 1a 9a 75 3e
       -0.06947424 -0.0066810683 0.25509468 0.23984566
0001c0 de c0 b3 3c ac 8f d4 3d f5 3d 9e bd fd aa 31 3a
       0.021942552 0.10378966 -0.07726661 0.00067774934
0001d0 ef ef e9 3c 3d cd 08 be c1 2a a3 bc 7e 39 f7 bd
       0.028556792 -0.13359542 -0.019917848 -0.12071513
0001e0 60 e6 74 3e da ad 5e 3e 6d 85 11 3e f6 79 42 bd
       0.23916006 0.21746007 0.14211054 -0.047479592
0001f0 9f dc c5 bc d2 72 97 3d 82 c7 43 3e 21 6d 5f 3e
       -0.024153052 0.07394947 0.19119075 0.21818973
000200 c5 9e 73 3c fc 8c 41 3e 9b 65 0b be 91 85 86 be
       0.014869397 0.18901438 -0.13612978 -0.26273778
000210 41 d9 34 3d a1 46 fe 3d 57 bc 47 bb 34 28 61 be
       0.044152502 0.12415815 -0.003047725 -0.21987993
000220 b5 8d a4 bd 87 62 2a 3e ab 35 45 be 3a e1 bd bd
       -0.08034841 0.16639148 -0.19258754 -0.09271474
000230 24 64 2a 3e b8 18 1d be e8 d2 8d be b1 f9 b1 3c
       0.16639763 -0.1534146 -0.2769997 0.021725507
000240 70 92 3c 3e 90 77 ac bd 95 18 46 3d 83 7d 24 be
       0.18415236 -0.08421242 0.048363287 -0.16063504
000250 c2 fb 95 3c 92 ec 1a bc de 5a a7 3d a3 e4 ac bd
       0.018308524 -0.009455817 0.081716284 -0.084420465
000260 81 9e 5c bc 1b b3 2f 3e a4 46 cc 3c 75 06 16 3e
       -0.013465525 0.17158167 0.024936028 0.146509
000270 43 35 62 3b 94 d6 a7 3d 5b c8 e3 b9 eb a5 77 bd
       0.003451661 0.081952244 -0.0004344609 -0.060460966
000280 6e 48 ae 3c c8 95 e5 3c 29 37 34 3c 61 cb 84 bd
       0.021274772 0.028025523 0.010999479 -0.06484104
000290 91 62 e5 3d 06 77 b7 3d e5 fe 49 3e 8a 96 b0 3c
       0.11200441 0.08958249 0.19726141 0.021556158
0002a0 14 e9 9b 3b d4 c4 dd 3d 5d bf 4f 3e f5 3a 0f 3e
       0.0047580097 0.108285576 0.20287843 0.13987334
0002b0 0f ef 9a 3d a0 72 71 3e 81 ce 42 3e 2d 0c 75 3d
       0.07565128 0.23578882 0.19024087 0.059826065
0002c0 28 d6 23 be e7 59 3a be 34 55 1f bb 49 1f 60 3c
       -0.15999663 -0.18198358 -0.002431226 0.013679334
0002d0 4d 2c 81 bc 33 16 2e 3e bd 46 2c be cd eb 8d be
       -0.015768195 0.17000656 -0.1682386 -0.27718964
0002e0 c7 fb a9 3d dc 52 9d bc 69 bc 15 bd 1c 40 74 3d
       0.08299976 -0.01920455 -0.036556635 0.059631452
0002f0 86 4d 9d bd 51 b0 51 3e 5e 25 ea 3c 07 f3 4b bc
       -0.07680802 0.20477416 0.028582271 -0.012448079
000300 d6 59 17 3e d0 e4 47 3e 8c 9c ef 3d f5 69 41 bc
       0.14780363 0.19520879 0.11699781 -0.011805047
000310 d4 7c e0 3a ed 09 18 3d ce 26 f4 bd b7 12 c2 bd
       0.0017127045 0.03711884 -0.11921464 -0.09476226
000320 f3 c5 47 be 32 38 a6 3d f2 72 a2 bd f2 f0 a4 bd
       -0.19509105 0.08116187 -0.0793208 -0.08053769
000330 2f a5 1b 3e 09 82 a0 3d b7 22 78 bd 49 0a ee 3c
       0.15199731 0.07837302 -0.06057998 0.029057639
000340 21 7a 82 bd 7f 50 1a be 1d f1 a0 3d 65 3b 09 3e
       -0.063709505 -0.1506977 0.07858489 0.13401563
000350 e2 29 45 3e fc 94 26 3e ac df 22 bd cf 34 d3 3d
       0.19254258 0.1626777 -0.03976409 0.10312807
000360 fb d4 20 3e 4a e7 de bc d9 55 3f 3e 35 b1 8d 3c
       0.15706246 -0.027209897 0.18685092 0.017296413
000370 ce 66 24 3e 3e fd 57 bd 88 5d 10 be 3b 6d 2f be
       0.16054842 -0.052731745 -0.1409818 -0.17131512
000380 c0 5d 3f 3e 50 33 95 bd 30 13 fc bd 90 33 1c 3e
       0.18688107 -0.07285178 -0.12308347 0.15254045
000390 27 28 d6 bd bc d0 c3 3a 7e 64 18 3d 9c aa 6a 3e
       -0.10456877 0.0014939527 0.03720521 0.22916645
0003a0 2c 77 0c be dd bd 99 be ee 6a 9a bd d7 f7 10 bd
       -0.13717335 -0.30027667 -0.075399265 -0.03539261
0003b0 7e e3 23 bd 28 15 94 3c 65 86 14 3e 64 b1 87 be
       -0.040011875 0.018076494 0.14504392 -0.26502526
0003c0 f7 d3 1f bd d0 19 95 bd ee 8a 2b 3e cf 3d b1 3d
       -0.039020505 -0.07280314 0.16752216 0.08654367
0003d0 fc 7b 0e 3e fb ac 3a be b2 2f 06 3d 66 12 45 3e
       0.13914484 -0.1823005 0.03276033 0.192453
0003e0 90 a5 db bd 4a f5 22 3b cd d8 5d 3e b0 f4 4e bd
       -0.10724938 0.0024865442 0.21664734 -0.05052632
0003f0 01 72 59 3e 01 73 05 3d b8 95 53 3e 6c 7e 99 3d
       0.21234895 0.03258038 0.20662582 0.07494816

fc2.weight f4 [128, 256]
000000 d7 14 c1 3d 9e 45 93 ba 7d 8e 96 be 32 af 1b be
       0.09427803 -0.0011235957 -0.29405585 -0.1520355
000010 86 d3 b3 3c 44 42 4e bf 97 9e 8f 3d d2 9e 5b 3c
       0.021951448 -0.80569863 0.070126705 0.013404565
000020 6a d6 94 bd e6 c0 5e 3e ad 17 87 bd 24 43 78 3d
       -0.07267459 0.21753272 -0.06596313 0.060610905
000030 37 26 30 3e f0 39 05 3e 8b 37 10 be d6 20 18 be
       0.17202078 0.13010383 -0.14083688 -0.14856276
000040 7e df 17 be e6 27 0e be 83 89 d7 bc 4b 19 01 3d
       -0.14831349 -0.13882408 -0.026310688 0.031518262
000050 32 27 21 bd 1e f5 56 3e cc 1b 6e 3d 7c c2 81 3e
       -0.03934402 0.20991942 0.058131978 0.25343692
000060 c0 15 cf be a2 af 8b be 55 2e 37 be f6 b0 bb bd
       -0.4044628 -0.27282435 -0.17888768 -0.09164612
000070 cc 3b c4 3d 6b 0b d6 3d e4 67 ee 3d 04 fb da 3d
       0.09581718 0.104513966 0.11640909 0.10692409
000080 a6 83 f1 ba 16 2a 57 3e dc 78 49 3e bf da ce 3e
       -0.0018426075 0.21012148 0.1967501 0.40401265
000090 20 d8 79 3d 06 32 06 be c4 15 f3 bc 9d 31 9d bc
       0.06099713 -0.1310502 -0.029673465 -0.019188697
0000a0 00 4a ac be 46 bc 3c bb 78 7b 50 3e c5 c6 a0 bd
       -0.33650208 -0.0028798743 0.203596 -0.07850412
0000b0 c6 2e c5 bc e6 1b 0e bd 00 26 b2 3d 03 c9 ae bd
       -0.024070155 -0.034694575 0.08698654 -0.08534434
0000c0 35 d4 8a bd c7 e8 fe 3d 2e 08 34 bd 80 35 ea bb
       -0.067787565 0.124467425 -0.043953113 -0.007147491
0000d0 61 63 43 3d 44 34 73 bd 71 9e a2 bd 73 10 4f 3e
       0.047702197 -0.059376016 -0.079403765 0.20221119
0000e0 e7 17 8d 3e 5d e1 01 be 51 2c 83 bc 08 e5 e0 3d
       0.275573 -0.12683626 -0.016012343 0.10981184
0000f0 82 66 8f 3c 2c 2c 5d 3d f5 20 8e bd 14 69 7f 3a
       0.017504934 0.053997204 -0.0693988 0.0009743136
000100 f1 c9 39 3e 09 1e d5 3d 63 01 5f 3e 56 37 54 3e
       0.18143441 0.104061194 0.21777873 0.20724234
000110 85 cb be be d7 e4 f5 3c 9f 33 03 3d 75 91 11 3e
       -0.37264648 0.030016346 0.03203165 0.14215644
000120 da 05 a8 3d 1e 23 ac be 73 6c 0b be 0e 61 4d 3e
       0.08204241 -0.33620542 -0.13615589 0.20056555
000130 c2 85 81 3d e4 5f a9 3d 4d 57 24 bd 60 0d 7f 3e
       0.063243404 0.08270243 -0.04012232 0.24907446
000140 13 9c 42 3d 9f e9 0a be b9 7c 5b 3d 36 26 d7 3d
       0.047512125 -0.13565682 0.05358574 0.10505335
000150 c1 65 cb 3d d0 ac 65 3e 4f 31 cc 3c 0a 7b 02 3e
       0.099315174 0.22429204 0.024925856 0.12742248
000160 57 de e4 3e 9e f8 f2 3d 58 cf 0e 3d 40 e0 db bd
       0.44700882 0.11863826 0.034865707 -0.10736132
000170 bc a9 66 be 67 20 91 3e be 47 74 3d 28 9a 40 3e
       -0.22525686 0.28345034 0.05963873 0.18808806
000180 d9 57 7e be ea 14 c9 be e8 a2 0b 3e 8e 0e 85 bc
       -0.24838199 -0.3927377 0.13636363 -0.016242292
000190 2e f2 a1 be 91 89 19 3e 96 b9 a9 3c 0b b0 bb 3d
       -0.3163008 0.14993884 0.020718377 0.09164437
0001a0 c5 64 3b be 28 99 14 be f5 1b 77 be d8 8c b7 3d
       -0.1830016 -0.1451155 -0.24131759 0.08962411
0001b0 25 a6 89 bd 54 6f 94 3d c6 b1 2f 3e a8 69 fe 3d
       -0.06721143 0.07247797 0.17157659 0.12422496
0001c0 01 18 60 bd be 66 ee bb 90 1b 14 3e 69 8e 0c 3e
       -0.054710392 -0.0072754314 0.1446364 0.137262
0001d0 57 51 aa 3d b8 f5 86 bd 4c 84 1c bf bb bc 75 be
       0.083162956 -0.06589836 -0.6113937 -0.23997776
0001e0 83 6b 83 3d f8 ca d7 bd 5c 57 17 bd 01 1c e5 ba
       0.064169906 -0.1053676 -0.036948547 -0.0017479659
0001f0 6b 04 4e 3e e2 2d 1c 3e 43 ce 69 3e 1d 3c 8c 3e
       0.20118873 0.15251878 0.22832589 0.27389613
000200 ee 22 05 be d9 4b bb 3c 77 ef 09 3d bb 60 2c be
       -0.13001606 0.022863315 0.033675637 -0.16833775
000210 79 db b4 3c 73 28 63 3d 22 1c f3 bd 3a 8f 44 3d
       0.022077309 0.055458497 -0.118706 0.047988154
000220 36 16 96 bd 98 fc 99 bd 7d 4b 8f 3e d3 5f 42 be
       -0.07328455 -0.075188816 0.2798728 -0.18981867
000230 ea e6 75 bb b2 75 0a 3d ea 6e e2 bd 23 6c 55 3e
       -0.0037521669 0.03380365 -0.110563114 0.20842032
000240 fe 76 60 be 0b d0 b2 3e 1c c4 63 3d 78 66 4e bd
       -0.21920392 0.3492435 0.055606946 -0.05039069
000250 44 44 d7 bc 6a b4 4d 3e dd 0b 19 bf 9b 84 c5 bd
       -0.026277669 0.20088354 -0.59783727 -0.09644433
000260 f2 dd ac be 91 53 fc 3d 33 f4 df bb d4 aa 79 3e
       -0.3376308 0.123206265 -0.0068345307 0.24381572
000270 33 05 73 be e2 0e b7 bb ae 72 d2 3c 67 ed 67 3e
       -0.23732452 -0.005586491 0.02568945 0.22649156
000280 0c a6 b2 3d 09 de 14 3e 84 68 26 3e ce a4 94 3d
       0.08723077 0.14537825 0.16250807 0.072579965
000290 87 6c 96 3d e0 29 db bd 42 69 dc 3d 5b 1e eb 3d
       0.07344919 -0.107013464 0.10762264 0.11480399
0002a0 a9 03 98 3d 97 50 e2 be 5d 16 14 3e 58 76 89 3d
       0.07422573 -0.4420211 0.14461656 0.067120254
0002b0 a4 13 c6 be 7b b0 32 3a ce 0c 4c be 3d 57 ed 3c
       -0.3868686 0.0006816459 -0.1992676 0.028972263
0002c0 1d 75 e0 be e6 46 0d 3e 9a 66 17 be 67 4a 9c 3e
       -0.4383935 0.13796577 -0.14785233 0.30525514
0002d0 e1 7d 72 be 22 bb 45 3c c8 d7 04 3e ae 21 dc bd
       -0.23680831 0.012068542 0.12972939 -0.107486114
0002e0 0d 3e 12 bd 2a ab 14 3e 3b a6 48 be 9c 90 32 3e
       -0.035703707 0.14518419 -0.19594662 0.17437977
0002f0 5b bc 05 be 96 16 e2 3d 12 6a 7f 3d e4 93 2f be
       -0.13060133 0.11039464 0.062357016 -0.1714626
000300 5e 14 06 3e 64 f6 2e 3e 16 df 8a be 2f 60 7f 3c
       0.13093707 0.17086178 -0.27123326 0.015586897
000310 b7 2e 11 bc 80 42 1b be d9 d2 80 bd 0e fa 83 be
       -0.008861235 -0.15162086 -0.06290216 -0.25776714
000320 12 91 9e 3e 78 5f b2 be af df 98 bd 78 a8 29 bd
       0.30970055 -0.34838462 -0.07464539 -0.04142043
000330 d5 bf 00 3d f5 86 fd ba 5a 97 e5 bd bf a5 2a 3d
       0.031432945 -0.0019342588 -0.11210509 0.041661974
000340 a6 b1 2b bc a1 84 3c 3e d9 2d 1b 3e 2c 91 84 3e
       -0.010479366 0.18409969 0.15154208 0.25892007
000350 8f 2f 0e 3d 0d b1 98 bd f8 41 5c 3d 6f c0 86 3e
       0.034713324 -0.07455645 0.05377385 0.2631869
000360 0b 92 f4 bd 56 c6 d3 3b dd 79 d0 3d 04 f5 9c bd
       -0.11941918 0.0064628525 0.101794936 -0.076639205
000370 64 eb 00 3e 43 4a 00 3e b0 b0 ea 3a f1 51 2d 3d
       0.12589794 0.12528329 0.001790544 0.042314474
000380 e0 ef 84 bd 56 4b c1 bd fa 2d 09 be a0 df 4f bc
       -0.06491065 -0.09438197 -0.13396445 -0.012687594
000390 29 aa 6c be 38 5c 81 bd e9 d7 a1 3d e4 90 da bc
       -0.23111786 -0.063164175 0.0790251 -0.026680417
0003a0 ad 3f 95 3e e5 a9 f1 bd 26 ec ab 3d c2 f4 48 bd
       0.29150143 -0.11799983 0.08394651 -0.049061544
0003b0 a4 9a 85 3d e6 a8 c8 bc 10 a6 25 be ff 75 3a bd
       0.06523636 -0.0244946 -0.16176629 -0.045522686
0003c0 38 01 e9 be 78 db 3b be b8 65 2e be bc ec 3b be
       -0.45508742 -0.1834544 -0.1703099 -0.18352026
0003d0 17 27 4a bd 21 a8 a6 3d 80 38 14 be d5 49 04 be
       -0.049353685 0.08137537 -0.14474678 -0.1291879
0003e0 c9 9b 3f be e4 e9 86 3d c4 a4 8c bd b3 52 2d 3d
       -0.18711771 0.0658758 -0.06867364 0.042315196
0003f0 6d 7b c6 bd d4 c4 0e be 10 91 11 3e 17 66 bd 3d
       -0.0969151 -0.13942271 0.14215493 0.09247988

fc2.bias f4 [128]
000000 1e 6f 9e 3d b4 82 38 bd cc b3 08 bd 1b 73 d7 bd
       0.07736038 -0.045046523 -0.033374593 -0.105200015
000010 97 54 49 3c 30 ce f9 3d 93 e8 ac 3c ff 13 2c 3c
       0.012288234 0.1219753 0.021106994 0.010502814
000020 53 11 91 3c 42 d1 87 3c 7d 9f 45 bd c7 0c 9e 3c
       0.017708456 0.016579274 -0.048247803 0.019293202
000030 c0 84 0d bd b0 b8 58 3d 65 d9 c7 3c ea 83 9b 3d
       -0.03455043 0.052910507 0.024395654 0.0759352
000040 1d 86 47 3e 09 d8 7e 3d 93 dd ac bd 4c d3 35 bd
       0.19484754 0.062217746 -0.084406994 -0.04439096
000050 f3 da 7f 3d 97 20 99 bd f7 86 3a be a0 ab 80 bc
       0.062464666 -0.07476919 -0.18215548 -0.015706837
000060 10 04 a5 bc 1a bb 34 bd c7 5e 47 bd db 04 92 bd
       -0.020143539 -0.044123746 -0.04867437 -0.07129832
000070 45 4a 44 bc 02 65 7c bd d7 1c 91 bc e8 f4 94 bd
       -0.011980598 -0.061619766 -0.017713947 -0.07273275
000080 2c 53 2c 3d 66 7e ad 3b 42 d6 b2 bd 0b 01 e6 3c
       0.042071506 0.005294609 -0.08732273 0.02807667
000090 fe db 69 bc 07 9f a5 3c 5b a7 fa bc 5c 84 e4 bd
       -0.014273642 0.020217432 -0.03059738 -0.11158058
0000a0 a6 b0 95 3c 70 5b 9e bd 10 43 8e 3d 79 4f 3e bd
       0.01827271 -0.07732284 0.06946385 -0.04646251
0000b0 14 fc 1a bc 18 e8 17 3e bd ea 14 bd c7 f5 2f 3c
       -0.009459514 0.1483463 -0.036356676 0.01073975
0000c0 af ac 98 bc 6f be e3 3d c4 3b ae 3d 41 ea a3 3c
       -0.01863703 0.11120307 0.08507493 0.020009162
0000d0 88 3a 38 bd eb f0 cd 3d 9a 3f 63 bd 98 e8 a2 3d
       -0.044977695 0.10055717 -0.055480577 0.0795452
0000e0 99 45 47 3d 2f b9 c7 3d f5 77 1a 3d e5 62 d3 3c
       0.048650358 0.09752118 0.037712056 0.025803993
0000f0 6d 0c 57 3d ad a8 29 bb 06 d6 7a 3d 58 6b 06 3e
       0.052502085 -0.0025887892 0.061239265 0.13126886
000100 ff 33 d9 3b 03 ab 23 bc a2 f5 5e bc 53 65 e1 3b
       0.006628513 -0.009989503 -0.013608368 0.006878534
000110 b6 6e c0 3c 8c 9c 59 3d fa 8e 53 be 0b 00 9b 3d
       0.023490291 0.05312781 -0.2066001 0.075683676
000120 00 ef a8 3c a4 ca 62 3c ef 0c b8 3d 2f 01 83 3d
       0.020621777 0.013842259 0.08986842 0.0639671
000130 b0 2b db bc f9 85 b7 3d e7 1c 9c bd c9 78 f9 3d
       -0.02675423 0.089611 -0.076227 0.12181241
000140 1a 55 51 bc 2d 5c 1f bd 03 a1 66 3d cf 8f 8d 3d
       -0.012776637 -0.038906265 0.056305896 0.06912195
000150 d0 9f 65 3d e8 8b 06 bd 2f 5c 9b bc a6 3e b8 3d
       0.056060612 -0.03284827 -0.018964855 0.08996324
000160 fe bc a7 3d d0 4e ea bc 65 42 4d bd 3a 58 a8 3d
       0.08190344 -0.028602034 -0.050112147 0.08219953
000170 e7 76 83 3c d9 07 df bc 4e 3f 84 bd 8f df b7 3c
       0.016047908 -0.027225422 -0.06457387 0.022445468
000180 43 c4 4a 3c e8 77 58 3d ce b6 a4 3d 68 35 18 be
       0.012375894 0.052848727 0.0804268 -0.14864123
000190 7a e1 7b bd df b3 71 3d 77 c1 8b bd 8d 8c b1 bc
       -0.061494328 0.05900943 -0.0682401 -0.021673465
0001a0 be 60 9c 3d 12 3e 7c 3d 3e 84 61 3d fc 06 4d 3e
       0.076356396 0.061582632 0.055057757 0.20022196
0001b0 1f f9 ec 3c 5d 19 41 3c 81 ca cd bd 6d 65 02 bb
       0.028927384 0.011785832 -0.1004839 -0.001989688
0001c0 d5 89 29 3d 17 36 ca bc 6a bf 26 3e 9b 4b ea 3d
       0.041391212 -0.024683995 0.16283956 0.11440202
0001d0 e7 94 fc 3c e9 f1 e3 3d e6 a9 2c 3c d2 a1 2e bd
       0.03083272 0.11130125 0.010538554 -0.042634793
0001e0 5b f2 d8 3b b7 f1 a7 3c f6 50 5f 3d ac 2a da 3d
       0.006620688 0.020501 0.05452057 0.1065267
0001f0 cc 39 2c bd 9d 05 44 bd 62 77 39 be 5e da 98 bd
       -0.042047307 -0.047856916 -0.18111947 -0.07463525

fc3.weight f4 [4, 128]
000000 7f 07 df 3e b4 d6 1d be 2b ae b9 3e b3 f0 13 be
       0.43560407 -0.15413934 0.36265692 -0.14447288
000010 05 53 54 be 7b d1 bb be 7d 79 ed be 41 f5 3c bf
       -0.20734794 -0.36683258 -0.4638175 -0.7381173
000020 0e 16 95 3f 16 c7 72 3e 8c b1 0a 3f 0d 9f 24 be
       1.1647356 0.23708758 0.54177165 -0.16076298
000030 b9 34 22 3f 17 7f 38 be 21 99 7f bd 36 d5 c4 be
       0.633617 -0.18017231 -0.062401894 -0.38443917
000040 dc 91 b2 be 8d 6a 52 be fd ac b6 3b c4 80 8e be
       -0.34876907 -0.20548458 0.005574821 -0.27832615
000050 b3 1c 8d 3d 2b 96 3f 3f 85 e6 5a bf 39 bc 74 3f
       0.068902396 0.74838513 -0.85507995 0.95599705
000060 0d 41 04 3e 9e e7 1b 3e 31 10 01 be 3d b9 ac bd
       0.1291544 0.15225074 -0.12603833 -0.08433769
000070 de fe 20 3e 8f 38 7a be e3 98 a8 3e 25 1a 19 3d
       0.15722224 -0.24435638 0.32929143 0.03737845
000080 2d d2 e5 3e 08 3f 65 be c1 7b 08 bf 12 a4 84 bd
       0.44886914 -0.22387326 -0.53313833 -0.064766064
000090 e5 40 9d be 03 b0 98 be bf 94 ad 3e d7 29 d6 3e
       -0.30713573 -0.29821786 0.33902547 0.41828796
0000a0 e7 21 54 bd 0c cc 0c bd fc 75 4e be bf 3b e6 bd
       -0.051790144 -0.03437428 -0.20162195 -0.112418644
0000b0 c3 0e 16 3f ad e9 4e be 01 e2 2b 3f a0 5b e7 be
       0.58616275 -0.20206328 0.6714173 -0.45187092
0000c0 3c 55 3d be 2d 8c eb 3d a4 1a 47 bd 68 3d 84 be
       -0.18489546 0.11501346 -0.04860939 -0.258281
0000d0 0b 14 fb bc 52 15 2b be 94 e6 59 be 80 c7 03 bd
       -0.030649206 -0.16707352 -0.21279365 -0.03217268
0000e0 f9 1d 1d bf 3b 60 9f be a7 48 8d 3f 10 3d 2a be
       -0.6137386 -0.31128106 1.1037797 -0.16624856
0000f0 19 1a 1c 3f 24 8f a6 3f f9 5c d6 be 0e 33 5b be
       0.6097732 1.3012433 -0.41867808 -0.21406195
000100 5d b4 09 3d 4c 9b 5f be 64 43 1d 3f 4f be a4 3d
       0.033619273 -0.21836585 0.61430955 0.08044111
000110 21 d3 5d 3f 7f ae b6 be 21 9a 95 3e f9 73 cb be
       0.8665028 -0.35680005 0.29219154 -0.39736918
000120 7f 99 f6 3b 82 f5 59 3f 1e 69 8f be 0f 76 7e 3e
       0.0075256224 0.8514024 -0.28009886 0.24849723
000130 ee fe 51 3e b9 9c 00 bf 98 51 aa 3e 36 04 a6 be
       0.20507404 -0.5023914 0.33265376 -0.32425088
000140 4b ca 2d 3f e9 98 93 3f 43 ba 2f bf 00 e0 c1 be
       0.678868 1.153104 -0.6864359 -0.3786621
000150 66 a7 e3 be be bf bd 3e 5f 5f e6 3e 1d 83 a6 be
       -0.44463652 0.3706035 0.44994637 -0.32521906
000160 1e 70 3c be 43 b4 59 be a6 c9 7c be 21 ea 70 be
       -0.18402144 -0.2126017 -0.24686298 -0.23526813
000170 a5 a3 1f bf 79 e9 a9 bd e2 55 a1 be c2 50 c6 bd
       -0.62359077 -0.082964845 -0.31510836 -0.09683372
000180 4a c8 4d 3f f8 64 c6 be 10 12 aa 3e 32 e1 2a be
       0.8038374 -0.38748908 0.33216906 -0.16687468
000190 f4 21 42 3f d9 3b d8 3b e9 9d c3 3c 94 90 38 3f
       0.7583306 0.0065989313 0.023879008 0.7209561
0001a0 a0 c3 02 bf 81 4d ae bd 46 8d 3d be 25 89 87 be
       -0.5107975 -0.085108764 -0.18510923 -0.2647182
0001b0 96 07 41 be 1b d8 d6 3d 56 25 47 3f 17 8e 17 be
       -0.1885055 0.104904376 0.77791345 -0.14800297
0001c0 f0 85 97 3e 28 9b f6 bd 60 e9 80 3d a1 c4 89 bc
       0.29594374 -0.120413125 0.06294513 -0.016817393
0001d0 9c 87 9c be f5 ad 84 be b9 cb f3 be 06 31 cf be
       -0.30572212 -0.2591397 -0.47616366 -0.4046709
0001e0 54 28 b8 be 2a 46 e6 3e 51 4c cd be 2b ac 17 3e
       -0.35968268 0.44975406 -0.40097287 0.1481177
0001f0 c8 b4 6a be 94 2e a4 3d a8 a5 0c 3f 0f 66 7d 3d
       -0.22920525 0.080166966 0.5494027 0.06186491
000200 5b d5 62 3e 63 dc 9d 3e ea 27 74 3e 7c 85 25 3f
       0.22151701 0.30832204 0.23843351 0.64656806
000210 b6 c4 c4 be a2 73 9c bc 3a 6d e7 be 2e 3d 8f be
       -0.3843133 -0.019098107 -0.4520052 -0.27976364
000220 d7 d8 26 3e d3 f6 24 3c 50 d9 62 bf 3b 46 bc 3d
       0.16293655 0.010068613 -0.8861284 0.09193083
000230 79 5b 92 bf 5b 9b e8 bd 05 49 b5 3e ea d6 05 be
       -1.1434165 -0.11357757 0.35407272 -0.13070264
000240 0f 88 0d 3f ad 0d e1 3d bb 2f 16 3f 93 79 ae be
       0.55285734 0.109889366 0.5866658 -0.3407713
000250 b9 55 b5 be 56 b7 22 be 7f 46 8d 3c c6 46 11 3f
       -0.35416964 -0.1589025 0.01724553 0.56748617
000260 10 41 35 be 25 53 46 be 45 11 86 3e 56 61 26 3d
       -0.177006 -0.19367655 0.2618505 0.04062017
000270 0e 70 96 be 8e ec 36 3c 1a 89 d8 be d1 56 94 bd
       -0.29382366 0.0111647975 -0.422921 -0.072431214
000280 8c 93 5b be 73 ae ee 3d 5d e9 17 bf bf 13 50 bf
       -0.21443003 0.11654367 -0.5934046 -0.8128013
000290 e6 16 29 be d3 14 98 3e 0f e8 71 3f a0 c0 b8 3e
       -0.16512641 0.29703388 0.9449472 0.3608446
0002a0 0d 9c 1b be cb 59 78 be 74 1c 2e bf 45 78 ec 3e
       -0.15196247 -0.24253003 -0.68012166 0.46185508
0002b0 3e e8 bb bd 0b 0b a9 3c f6 f7 a3 3e 09 43 02 3f
       -0.09175156 0.020635149 0.32025117 0.5088354
0002c0 e7 8e b3 3e e2 e9 93 3e ed e0 be be 52 c3 f5 bd
       0.35069963 0.28889376 -0.3728098 -0.12000145
0002d0 72 80 ef 3d 8a 08 c7 3d d6 2b e4 bd a1 6f 6c 3f
       0.11694421 0.097184256 -0.111411735 0.9235783
0002e0 a0 37 41 bf a9 8a 54 bd de 0f b9 3e 53 14 2f 3f
       -0.754755 -0.05189005 0.36144918 0.6839039
0002f0 47 7b fa be b0 1b e8 3e b5 62 f4 bd 42 29 7e 3e
       -0.48922178 0.45333624 -0.11932889 0.24820426
000300 8d 7f fa 3d 77 23 77 be ea 7b 01 3f 0b 96 7b be
       0.1223136 -0.24134623 0.505797 -0.24568956
000310 93 f3 8e bd fd f4 7d 3e b3 96 a7 3d 8a 8a 84 bd
       -0.06980052 0.24800487 0.081830405 -0.06471737
000320 ec 39 0f 3f f4 11 08 bf 7c e5 74 3d c9 9b 7b be
       0.55947757 -0.53152394 0.059789166 -0.24571146
000330 23 7e ec bd 31 54 cf be b5 b8 ab 3e 97 83 a3 bc
       -0.11547496 -0.4049392 0.33539358 -0.019960208
000340 f2 f7 58 bf 08 36 ba 3e 92 1a 36 be ba 37 82 be
       -0.84753335 0.36369348 -0.17783573 -0.2543314
000350 41 54 14 3c b7 22 01 be ac 64 dd 3e 13 09 cc be
       0.009053291 -0.12610899 0.4324087 -0.39850673
000360 9d f2 3a 3f d2 cb 04 bf 4b f0 8f 3d 59 37 0d 3e
       0.7302645 -0.51873505 0.07028254 0.13790645
000370 1d 3d 0f be 0b 6f 81 bf af fa 9b 3e 28 24 46 3f
       -0.13988157 -1.0112013 0.30464694 0.7739892
000380 ae 33 e6 be 98 3d 49 be ca d5 69 be 53 ee 68 bf
       -0.44961303 -0.19652402 -0.2283546 -0.90988654
000390 d6 af fe be e2 e2 77 3d 9b 8e ae 3e 69 70 01 3f
       -0.49743527 0.060519107 0.34093174 0.5056215
0003a0 25 9f fa 3e 57 bf 2e bf 46 2e fb 3c 1c 08 22 3b
       0.48949543 -0.6826071 0.030661713 0.0024724072
0003b0 c2 c7 ac bd 85 9c a8 be 3a 1d 7a be d3 67 a9 3c
       -0.08436538 -0.32931915 -0.24425212 0.02067939
0003c0 15 41 bf be ff 29 9d 3e c7 6d ac 3e 2a 81 a7 3e
       -0.3735434 0.30696103 0.33677503 0.32715732
0003d0 04 13 1e 3e 58 6d 86 3e 0c d0 8a 3d 42 d5 7d 3e
       0.15436941 0.26255298 0.06777963 0.24788383
0003e0 e5 3c 46 be 26 75 5a bf 1a 5c 53 3d 53 62 6c 3e
       -0.19359167 -0.85335004 0.051601507 0.23084383
0003f0 1d 1f 79 3d 51 89 b8 3d 1b b5 49 3e de e0 c4 bd
       0.060820688 0.09010566 0.19697993 -0.096132025

fc3.bias f4 [4]
000000 5a 90 15 be 3e ae 54 3d 96 c1 60 3d 94 30 1e be
       -0.14605847 0.051923983 0.054872118 -0.15448219
